ckpt/SeedGNN-model-fiveDirection-trained.pth (torch, 15065 bytes, 17 tensors)

seed_gnn.mlp.0.0.weight f4 [15, 1]
-1.6618615 -2.159023 -0.6348579 -4.0938077 -3.547804 -2.0891852 0.6372909 -0.5742686
-0.787727 -0.024090528 -3.8491127 -1.7887876 -2.0868967 -0.89159405 0.3293052
00000000: e1b7 d4bf 6f2d 0ac0 0c86 22bf 7900 83c0
00000010: 390f 63c0 36b5 05c0 7f25 233f 4403 13bf
00000020: 7aa8 49bf 8059 c5bc dd57 76c0 fef6 e4bf
00000030: b78f 05c0 823f 64bf b19a a83e

seed_gnn.mlp.0.0.bias f4 [15]
-1.0369486 -0.5764847 -0.88589454 -0.9424749 -1.6324432 -0.6292355 -3.3567016 -1.2789071
-0.88872385 -0.046648502 -1.2494795 -0.7033101 -0.64060724 -1.2909979 -1.3314656
00000000: bbba 84bf 8094 13bf fcc9 62bf 0946 71bf
00000010: e6f3 d0bf 9415 21bf 33d4 56c0 3ab3 a3bf
00000020: 6883 63bf 8012 3fbd f2ee 9fbf 210c 34bf
00000030: d6fe 23bf 6b3f a5bf 776d aabf

seed_gnn.mlp.1.0.weight f4 [15, 16]
-0.05358375 -0.03352398 0.04838118 -0.09440039 0.12010757 0.09546397 0.1677903 -0.22141163
-0.107236326 -0.08194965 0.10862044 -0.016966878 -0.14058569 0.19886819 0.038856238 -1.935426
-0.16696501 0.23059747 0.10817689 0.24225283 -0.08592901 0.20722863 -0.04150656 -0.24438748
0.09979242 0.10689786 -0.11065847 -0.17249751 -0.21484941 -0.0019997358 0.06675422 -0.21134898
-0.1901412 -0.14833817 -0.086185396 -0.21882832 -0.10786909 -0.21234307 -0.2104899 0.009441763
0.16753182 -0.1355167 0.11499834 -0.072356045 -0.24526164 0.021422893 0.10477874 -0.04107651
0.15671918 -0.16389251 -0.009382516 0.21669966 -0.11475465 -0.2016128 0.17422995 0.032839477
0.0021628141 0.097554505 -0.21644816 0.21096742 -0.08794889 -0.034373105 0.06771034 -0.22233397
-0.4228147 -0.6075464 -0.05018124 -0.50239354 -0.24470662 -0.29481804 -0.21842866 0.2502414
-0.102445334 -0.24960911 -0.51189613 -0.61295635 -0.20539713 -0.078907765 0.13636437 -1.40391
0.002885148 -0.06104868 -0.0671688 0.14378634 -0.057496276 -0.029247575 0.18477567 -0.04452568
0.17016226 0.13516852 -0.015873564 0.104820974 -0.18178508 -0.2557073 -0.14362808 -0.21308966
1.3791319 1.1699291 0.046715856 1.373658 1.7609751 1.1599418 -0.22084309 0.072292596
-0.1079348 -0.12974828 1.5615261 1.5082041 1.4934644 -0.015804272 0.112146616 -4.5524173
-0.22340864 0.03769037 -0.016312629 0.18899518 0.23207605 -0.18882802 -0.10255802 -0.19656399
0.23516643 0.035176963 -0.014223129 0.000603348 0.028172731 -0.17420611 0.1718309 -0.20168504
-0.6735219 -0.4153446 -0.030021638 -1.0204159 -0.603513 -0.5729292 0.10503006 0.17047061
0.032101184 -0.05057341 -0.6668929 -0.7144443 -0.7634435 0.11446437 -0.077193774 -0.4391681
-0.18043482 -0.020087332 0.074909 -0.13429523 0.11311951 0.048831612 0.011000454 0.08900213
0.08126512 0.11902505 -0.07339609 -0.13617513 -0.1532425 -0.1192652 0.056010813 -0.08164558
-0.05667611 -0.05778368 0.038128227 0.046004858 -0.25992885 -0.078546904 -0.018242447 0.22216892
0.13327584 -0.18247503 -0.15009297 0.06935298 0.14963531 -0.21637975 0.23990957 -0.23655757
-0.022222724 -0.20385712 -0.17902324 0.097056195 -0.17335765 0.24578126 0.12079221 0.03228765
-0.19005293 -0.16452762 0.18819354 -0.2355415 0.1975339 0.048732363 0.14812727 -0.14569946
0.17676295 0.13680968 0.04010418 0.12602489 -0.0031731531 -0.24759477 -0.16208586 0.0022279492
0.09145209 -0.16229609 0.07405512 -0.20992571 -0.13658862 -0.15682909 0.20702843 -0.13164997
-1.8400859 -1.6267296 -0.1339485 -1.9337593 -2.0196812 -1.51412 -0.36206034 -0.11759731
-0.048726767 0.16915277 -1.6578541 -1.626375 -2.0056484 0.17078748 -0.24943867 -1.9950439
-0.026005149 -0.2326985 -0.19148749 0.09380028 -0.21841219 0.052338183 0.016752332 0.08462459
-0.14872277 -0.050844193 0.06680834 -0.12602898 0.08670032 0.22211018 -0.2231358 -0.054096818
00000000: a27a 5bbd 7150 09bd 582b 463d fe54 c1bd
00000010: f5fa f53d 9d82 c33d 38d1 2b3e bbb9 62be
00000020: b89e dbbd 38d5 a7bd 6574 de3d 1ffe 8abc
00000030: b2f5 0fbe 1aa4 4b3e b827 1f3d 0abc f7bf
00000040: e0f8 2abe be21 6c3e d88b dd3d 2011 783e
00000050: 8cfb afbd be33 543e c802 2abd b640 7abe
00000060: f85f cc3d 44ed da3d e8a0 e2bd 30a3 30be
00000070: 7c01 5cbe 000e 03bb 70b6 883d de6b 58be
00000080: 60b4 42be f6e5 17be f881 b0bd 8814 60be
00000090: 78ea dcbd 7670 59be aa8a 57be a0b1 1a3c
000000a0: 768d 2b3e e4c4 0abe 4084 eb3d 682f 94bd
000000b0: de25 7bbe 107f af3c 3c96 d63d d83f 28bd
000000c0: fe7a 203e 70d3 27be 20b9 19bc 84e6 5d3e
000000d0: 7c04 ebbd 9673 4ebe 5669 323e b082 063d
000000e0: 00be 0d3b a8ca c73d 96a4 5dbe d807 583e
000000f0: 8c1e b4bd d0ca 0cbd b8ab 8a3d 84ab 63be
00000100: 2b7b d8be 2988 1bbf d88a 4dbd dd9c 00bf
00000110: 5f94 7abe 64f2 96be c3ab 5fbe a41f 803e
00000120: dcce d1bd 8899 7fbe a00b 03bf b5ea 1cbf
00000130: a053 52be 659a a1bd 1aa3 0b3e 53b3 b3bf
00000140: c014 3d3b 2e0e 7abd cc8f 89bd ba3c 133e
00000150: 3781 6bbd 9c98 efbc d535 3d3e 8f60 36bd
00000160: 043f 2e3e 9e69 0a3e 4709 82bc 61ac d63d
00000170: de25 3abe 11ec 82be 3d13 13be 2d34 5abe
00000180: 6587 b03f 3dc0 953f 2059 3f3d 06d4 af3f
00000190: a267 e13f f978 943f b124 62be 240e 943d
000001a0: ec0c ddbd bcdc 04be 16e0 c73f d50c c13f
000001b0: d729 bf3f f677 81bc 20ad e53d 67ad 91c0
000001c0: 3cc5 64be 3861 1a3d 10a2 85bc f487 413e
000001d0: 58a5 6d3e 225c 41be f009 d2bd 1248 49be
000001e0: 78cf 703e b815 103d 2008 69bc 002a 1e3a
000001f0: 80ca e63c 1663 32be 70f4 2f3e 8686 4ebe
00000200: ee6b 2cbf 0ca8 d4be f0ef f5bc fd9c 82bf
00000210: d47f 1abf 7dab 12bf 001a d73d d98f 2e3e
00000220: 887c 033d 1026 4fbd 7eb9 2abf d2e5 36bf
00000230: 0971 43bf 4c6c ea3d c517 9ebd a4da e0be
00000240: e8c3 38be 308e a4bc e469 993d b084 09be
00000250: 34ab e73d a803 483d 403b 343c c046 b63d
00000260: 546e a63d 68c3 f33d b050 96bd 7e71 0bbe
00000270: 9aeb 1cbe 5041 f4bd 986b 653d cc35 a7bd
00000280: 3525 68bd 94ae 6cbd 582c 1c3d 976f 3c3d
00000290: 6515 85be 33dd a0bd 2f71 95bc 4080 633e
000002a0: 7679 083e bcda 3abe f9b1 19be ef08 8e3d
000002b0: 003a 193e a792 5dbe dbaa 753e 263c 72be
000002c0: 6e0c b6bc ecbf 50be de51 37be 66c5 c63d
000002d0: ab84 31be 15ae 7b3e e861 f73d 0e40 043d
000002e0: 3c9d 42be ee79 28be cfb5 403e ca31 71be
000002f0: 5446 4a3e 969b 473d adae 173e 3d32 15be
00000300: 5901 353e d617 0c3e 4844 243d ab0c 013e
00000310: adf4 4fbb 7c89 7dbe d6f9 25be c902 123b
00000320: 3c4b bb3d f230 26be 36aa 973d c4f6 56be
00000330: e3dd 0bbe ce97 20be 43ff 533e 40cf 06be
00000340: ef87 ebbf ad38 d0bf cc29 09be 6d85 f7bf
00000350: 7542 01c0 afce c1bf f95f b9be dcd6 f0bd
00000360: b895 47bd 6236 2d3e 9034 d4bf 0e2d d0bf
00000370: 8b5c 00c0 eae2 2e3e da6c 7fbe 995d ffbf
00000380: c008 d5bc 8448 6ebe 4c15 44be 5c1a c03d
00000390: 72a7 5fbe 9060 563d 303c 893c a84f ad3d
000003a0: c84a 18be 0042 50bd d0d2 883d be0d 01be
000003b0: f08f b13d da70 633e b67d 64be a094 5dbd

seed_gnn.mlp.1.0.bias f4 [15]
-0.3807641 -0.16375065 -0.01636523 -0.16586518 -0.75221527 -2.3909776 -0.92132396 -0.18631226
-2.7308223 -0.050377488 -2.280558 -0.053328004 -0.010094515 -1.4713682 -0.0910362
00000000: 83f3 c2be 40ae 27be 6010 86bc 90d8 29be
00000010: 2e91 40bf c705 19c0 e3db 6bbf a4c8 3ebe
00000020: cbc5 2ec0 a058 4ebd aaf4 11c0 776e 5abd
00000030: 7763 25bc cb55 bcbf 3071 babd

seed_gnn.mlp.2.0.weight f4 [15, 16]
-0.0128573 0.21812138 0.013604224 -0.0151364505 -0.03125149 0.18908483 0.12775049 0.13333657
-0.21590506 -0.24238041 -0.038316626 -0.104457825 0.039238058 -1.893282 0.14341229 -2.4455438
-0.038374454 -0.13576436 0.2321417 0.0010000467 0.1556653 -0.070740156 0.23358652 0.17940861
-0.032853335 -0.09308311 -0.17216276 -0.08457211 -0.05715978 -0.51410896 0.2476924 -0.09830299
0.049734235 0.22228459 0.06207788 0.23551321 0.11443404 0.20169885 -0.0072614276 -0.11699763
0.21122874 0.22366726 -0.20974329 0.043238908 0.24548025 -0.21879244 -0.17341834 -0.057415687
-0.11834264 0.190085 -0.23262173 -0.24575809 -0.53105026 0.24397627 -0.12739865 -0.024475902
0.20450728 0.16454607 0.09999217 -0.020464957 -0.0743933 -0.051420324 -0.087766916 -0.62631696
0.2336218 -0.005346805 -0.24044314 -0.014079958 0.015478522 0.09860745 0.07262075 0.021057665
-0.15178502 -0.13935602 0.14035955 -0.040476263 -0.095137 0.09890379 -0.16251746 -0.22530831
-0.08062908 0.22160149 0.026774406 0.1395813 0.13787651 0.1625027 -0.050801694 -0.14314118
-0.16793558 0.14963886 0.21474202 0.12393731 -0.19669384 0.047104795 -0.038116723 -0.3837745
0.197739 -0.106683254 -0.24711129 -0.19959837 -0.10902679 -0.121456355 -0.16110471 -0.14456972
-0.015847862 -0.24011984 0.06845528 -0.08910093 -0.14490372 -0.14428172 0.21792328 -0.19862673
0.05810386 0.03670764 0.06996846 -0.10103342 -0.24772239 0.12218195 -0.16151795 -0.20034757
0.2463043 0.21276385 -0.2113663 -0.040754557 0.20070037 0.107607655 0.17180339 -0.17010126
-0.24581856 -0.15884316 0.18417573 0.08961633 -0.13451888 0.21789838 0.04541066 0.23295632
-0.12541501 -0.22525808 0.10867938 0.076232575 -0.046940297 -0.05027157 0.1426597 -0.7427787
-0.19598794 -0.23710033 -0.07688138 -0.047318906 -0.1349714 0.20053343 -0.08965907 0.07393509
-0.08718214 0.095208526 -0.08229356 -0.23067778 -0.08598277 -0.02908258 -0.08179408 -0.20379217
0.14318177 -0.06669906 -0.04504496 -0.008799672 -0.17060222 -0.15887052 0.11045141 0.10014272
-2.242339 -0.05954802 0.0067557152 0.1005092 -0.20721382 -2.1023037 0.014347196 -2.884831
-0.020764887 -0.19459134 0.2434277 0.03637421 0.2627737 -0.13993737 0.013074968 -0.08371025
-0.081153676 0.2350192 -0.04482578 -0.20993376 0.1963794 0.13390182 -0.15371403 -2.2862198
0.11941674 -0.088706404 -0.21732631 0.13832799 0.23474029 0.14248322 0.18298359 0.23294315
0.029163044 0.0023435652 -0.18639955 -0.23841035 -0.14833167 0.09256691 -0.18856874 -0.6326687
-0.24226737 0.14544377 -0.119353354 -0.15565157 -0.00815558 -0.180089 -0.067245945 -0.07022551
-0.17513743 -0.0047968626 0.040635664 -0.11815801 -0.17849243 0.038030684 0.07198295 -0.6394267
0.1392422 -0.007038951 0.09257537 0.1458666 -0.06160697 -0.06324761 0.16008136 0.027354926
-0.07942116 -0.20304516 -0.18656 0.014160752 0.11571265 -0.18166757 -0.09252694 -0.6964072
00000000: 6da7 52bc 365b 5f3e 40e4 5e3c e0fe 77bc
00000010: 9001 00bd 749f 413e 06d1 023e 6289 083e
00000020: 3716 5dbe 9232 78be e5f1 1cbd fced d5bd
00000030: 16b8 203d 1157 f2bf acda 123e ca83 1cc0
00000040: 882e 1dbd d005 0bbe 8eb6 6d3e 0014 833a
00000050: b966 1f3e 37e0 90bd 4e31 6f3e e4b6 373e
00000060: 3891 06bd 5ca2 bebd 6f4b 30be 2434 adbd
00000070: 6020 6abd a59c 03bf 14a3 7d3e 1453 c9bd
00000080: 20b6 4b3d 929e 633e 6045 7e3d 602a 713e
00000090: 655c ea3d 258a 4e3e 45f1 edbb 749c efbd
000000a0: 594c 583e 0809 653e f2c6 56be 481b 313d
000000b0: 2d5f 7b3e 200b 60be 9494 31be b62c 6bbd
000000c0: a05d f2bd a4a5 423e 6434 6ebe 02a8 7bbe
000000d0: e9f2 07bf ead4 793e cb74 02be b081 c8bc
000000e0: 5b6a 513e c47e 283e b2c8 cc3d 20a6 a7bc
000000f0: 845b 98bd 1e9e 52bd 24bf b3bd 4f56 20bf
00000100: 8e3a 6f3e 4034 afbb ba36 76be a0af 66bc
00000110: a099 7d3c b4f2 c93d 30ba 943d 2081 ac3c
00000120: 886d 1bbe 58b3 0ebe 6aba 0f3e 70ca 25bd
00000130: 30d7 c2bd 128e ca3d fa6a 26be 39b7 66be
00000140: dc20 a5bd 80eb 623e 0056 db3c 66ee 0e3e
00000150: 802f 0d3e 1c67 263e 7015 50bd 9a93 12be
00000160: 4ef7 2bbe ee3a 193e 55e5 5b3e d8d2 fd3d
00000170: 1c6a 49be f5f0 403d 4820 1cbd 177e c4be
00000180: 187c 4a3e c07c dabd be0a 7dbe 8463 4cbe
00000190: 7049 dfbd 1cbe f8bd a2f8 24be 160a 14be
000001a0: 60d3 81bc fae1 75be 4832 8c3d 8c7a b6bd
000001b0: a461 14be 96be 13be 4827 5f3e ce64 4bbe
000001c0: 50fe 6d3d c05a 163d a04b 8f3d 9cea cebd
000001d0: f0aa 7dbe 883a fa3d f664 25be ea27 4dbe
000001e0: 3237 7c3e c4de 593e 6870 58be 40ee 26bd
000001f0: 6684 4d3e 6761 dc3d 3aed 2f3e 062f 2ebe
00000200: dcb7 7bbe c8a7 22be 9098 3c3e c488 b73d
00000210: 51bf 09be c120 5f3e 8700 3a3d 1a8c 6e3e
00000220: cb6c 00be 0eaa 66be 4b93 de3d d31f 9c3d
00000230: 7844 40bd 90e9 4dbd 6215 123e bf26 3ebf
00000240: 10b1 48be 6eca 72be fc73 9dbd 78d1 41bd
00000250: f135 0abe a358 4d3e 2d9f b7bd 486b 973d
00000260: 8d8c b2bd b0fc c23d 8789 a8bd cc36 6cbe
00000270: bc17 b0bd 973e eebc a883 a7bd e5ae 50be
00000280: 3e9e 123e 8499 88bd 1081 38bd 802c 10bc
00000290: 59b2 2ebe f4ae 22be 5934 e23d a017 cd3d
000002a0: 7b82 0fc0 a0e8 73bd 0c5f dd3b c4d7 cd3d
000002b0: dc2f 54be 258c 06c0 8010 6b3c 12a1 38c0
000002c0: 201b aabc f442 47be 1c45 793e 20fd 143d
000002d0: 468a 863e be4b 0fbe 6438 563c 4870 abbd
000002e0: e633 a6bd e0a8 703e 3d9b 37bd e0f8 56be
000002f0: ae17 493e 8f1d 093e 3667 1dbe 6d51 12c0
00000300: c490 f43d b4ab b5bd ca8a 5ebe daa5 0d3e
00000310: c25f 703e 1fe7 113e 0d60 3b3e a688 6e3e
00000320: 56e7 ee3c 8096 193b 86df 3ebe d821 74be
00000330: 42e4 17be b893 bd3d 2a18 41be 93f6 21bf
00000340: f014 78be 36ef 143e 886f f4bd 2063 1fbe
00000350: fb9e 05bc 4069 38be 3eb8 89bd 64d2 8fbd
00000360: 3a57 33be 002f 9dbb 9571 263d d4fc f1bd
00000370: b8c6 36be 10c6 1b3d cc6b 933d 78b1 23bf
00000380: 8295 0e3e 00a7 e6bb 2898 bd3d 0e5e 153e
00000390: 9757 7cbd f787 81bd 5eec 233e 7017 e03c
000003a0: 90a7 a2bd 12eb 4fbe 9609 3fbe 8002 683c
000003b0: c1fa ec3d 1007 3abe c47e bdbd be47 32bf

seed_gnn.mlp.2.0.bias f4 [15]
-0.96976024 -0.630259 -0.5937521 -1.0241026 -0.17796022 -0.3651745 -0.2355428 -0.16320473
-0.70551693 -0.006847792 -0.43950593 -3.814013 -0.73289174 -0.78037137 -0.72844535
00000000: 3542 78bf a758 21bf 2300 18bf cb15 83bf
00000010: 343b 36be 27f8 babe 2232 71be 241f 27be
00000020: c29c 34bf 7163 e0bb ec06 e1be ca18 74c0
00000030: cb9e 3bbf 6bc6 47bf 657b 3abf

seed_gnn.mlp.3.0.weight f4 [15, 16]
-0.03651992 0.24808493 0.027872015 -0.20095977 0.06074646 0.045319587 -0.22315937 -0.22598708
-0.09600878 -0.17150533 -0.1887802 0.12749417 0.02963357 -0.24593434 0.14816222 -0.33353597
0.13832374 -0.23851806 -0.006496507 -0.39351866 -0.1298509 -0.13559835 0.017668664 -0.16766298
0.042014584 -0.06220716 -0.14636748 -0.81515676 -0.026295556 0.046969924 0.06157716 -0.59843695
-0.093800865 -0.10299194 0.037522864 -0.16432881 0.19961941 0.044962823 -0.050067425 -0.0037872493
0.13859275 -0.22607498 -0.03493531 -0.09616366 -0.06622679 -0.11043351 -0.08258753 -0.23550124
0.031631347 -0.114785045 -0.10994105 -0.16288352 0.08560252 0.14086927 -0.0035568476 0.2371026
0.13494587 0.032453075 -0.1528049 -0.13362126 -0.14043821 0.12687655 0.007692889 -0.095960625
0.051831655 0.057988316 0.025389759 -0.33322892 -0.058128744 -0.21024768 -0.18275818 -0.047162026
0.1613281 -0.16346106 0.07043022 0.10967747 -0.019786758 -0.3404364 -0.28335637 -0.38268295
0.004222572 0.060699463 0.13868281 -0.12051597 -0.23137903 0.22058672 -0.055324882 0.03503111
-0.2043204 -0.06343472 -0.22728035 -0.10226795 -0.10736507 0.047749937 -0.06857395 -0.20583361
0.1854451 -0.009429187 0.00155285 0.05496466 -0.05711168 -0.057100743 0.15628836 0.21336895
-0.16509733 -0.21769065 -0.22653174 0.095816374 0.19449344 0.061659962 -0.17357078 -0.24150199
0.20884411 -0.19301969 0.052226152 -0.13318938 -0.027631849 -0.14284228 0.0008608103 -0.1417067
0.02136725 -0.2038014 -0.04899102 -0.13814747 0.14568116 -0.0035719732 -0.11360749 -0.45031264
0.06550615 0.048534125 0.044925325 0.12889463 0.2467005 -0.17206672 -0.14996922 0.123585016
0.11728333 -0.043338947 0.12953496 -0.2663794 -0.11503783 0.16954386 -0.28196827 -0.31794342
-0.2519502 -0.15129322 0.15127283 0.0035618101 -0.15072834 -0.11837967 0.07438582 0.040152848
-0.16572742 -0.12908363 -0.03403623 -0.09866795 -0.033933923 -0.07665512 -0.050176423 -0.4021204
-0.22475669 0.2192029 -0.22449961 0.31764477 0.07114321 0.056277882 -0.16188568 -0.10656464
0.0822484 0.22201528 0.004582131 0.1444138 -0.14657114 0.03633575 -0.11550171 -0.41980487
0.2011964 0.15741464 -0.22553049 -0.07190624 0.06641954 0.049204186 0.14365587 -0.2215729
0.23406732 -0.11862402 0.07918044 0.075814925 -0.101276755 0.05934977 0.13137794 -0.43582705
-0.1599255 0.040578544 0.19996174 0.24650612 -0.07830793 0.16400108 0.19282019 -0.15446544
-0.17019074 0.060251996 0.21633884 -0.12658927 -0.1616548 -0.030507872 -0.12309383 -0.14372118
0.098017834 0.08151571 -0.16478054 -0.15287113 -0.2387208 -0.07584597 0.23596159 -0.0023061114
0.26242697 -0.16581228 2.5188878 0.6033704 0.12004398 -0.108065896 0.33124816 -2.6350253
0.076223254 -0.0049624145 0.13031948 0.23639126 -0.12067264 -0.1615678 0.0916315 -0.18554258
0.20126536 0.22330847 0.16105561 0.041683145 0.09228163 0.13608731 0.23290278 -0.38843146
00000000: e995 15bd fa09 7e3e da53 e43c 66c8 4dbe
00000010: 48d1 783d 08a1 393d e483 64be 2869 67be
00000020: 40a0 c4bd 189f 2fbe 994f 41be d58d 023e
00000030: 1ac2 f23c 36d6 7bbe d6b7 173e 3ac5 aabe
00000040: bda4 0d3e 143e 74be a7e0 d4bb 477b c9be
00000050: a2f7 04be 4bda 0abe e0bd 903c d8af 2bbe
00000060: 7c17 2c3d efcc 7ebd 5be1 15be 1dae 50bf
00000070: c769 d7bc 8963 403d 5538 7c3d 2a33 19bf
00000080: ab1a c0bd 70ed d2bd 93b1 193d d045 28be
00000090: 0869 4c3e f02a 383d 8013 4dbd 8033 78bb
000000a0: 42eb 0d3e 3380 67be 5418 0fbd 74f1 c4bd
000000b0: e9a1 87bd f72a e2bd a723 a9bd 3d27 71be
000000c0: df8f 013d 6c14 ebbd c628 e1bd f0ca 26be
000000d0: 6050 af3d 0940 103e 001a 69bb 06cb 723e
000000e0: 402f 0a3e 84ed 043d e378 1cbe 03d4 08be
000000f0: 09cf 0fbe edeb 013e a114 fc3b 0187 c4bd
00000100: 6e4d 543d 2885 6d3d 2ffe cf3c fb9c aabe
00000110: 6818 6ebd 2b4b 57be f624 3bbe f82c 41bd
00000120: 3233 253e 5662 27be b83d 903d 959e e03d
00000130: d717 a2bc ae4d aebe 1614 91be 05ef c3be
00000140: 805d 8a3b 00a0 783d de02 0e3e 14d1 f6bd
00000150: a0ee 6cbe 7ce1 613e 589c 62bd c87c 0f3d
00000160: 5e39 51be 10ea 81bd 2ebc 68be dc71 d1bd
00000170: 38e2 dbbd 7095 433d 8070 8cbd 0cc6 52be
00000180: 52e5 3d3e e07c 1abc 0089 cb3a a022 613d
00000190: f0ed 69bd 78e2 69bd 0e0a 203e 647d 5a3e
000001a0: 460f 29be 4cea 5ebe f0f7 67be 603b c43d
000001b0: 4a29 473e 288f 7c3d 8abc 31be 4c4c 77be
000001c0: 3bdb 553e f4a6 45be 17eb 553d cc62 08be
000001d0: 305c e2bc 3f45 12be 00a8 613a 901b 11be
000001e0: 5f0a af3c 50b1 50be cfaa 48bd 8876 0dbe
000001f0: 712d 153e c417 6abb 0bab e8bd 618f e6be
00000200: 1728 863d b8cb 463d 9e03 383d f4fc 033e
00000210: 0e9f 7c3e 4232 30be 8891 19be 241a fd3d
00000220: 3e32 f03d 2e84 31bd d0a4 043e e162 88be
00000230: f498 ebbd e89c 2d3e 255e 90be 7bc9 a2be
00000240: 9eff 80be 9cec 1abe 44e7 1a3e 426d 693b
00000250: 8858 1abe 0a71 f2bd 9857 983d 5077 243d
00000260: 73b4 29be 802e 04be 9369 0bbd 6c12 cabd
00000270: 4cfe 0abd 5cfd 9cbd cb85 4dbd bae2 cdbe
00000280: 9e26 66be ba76 603e 3ae3 65be 56a2 a23e
00000290: 88b3 913d a383 663d 5cc5 25be 903e dabd
000002a0: d971 a83d f957 633e b325 963b 36e1 133e
000002b0: bf16 16be ccd4 143d 298c ecbd aaf0 d6be
000002c0: 6e06 4e3e 4e31 213e 77f1 66be 9443 93bd
000002d0: f806 883d 548a 493d 861a 133e 02e4 62be
000002e0: 58af 6f3e 26f1 f2bd 5b29 a23d db44 9b3d
000002f0: 306a cfbd bf18 733d f087 063e b924 dfbe
00000300: 83c3 23be b035 263d c5c2 4c3e 1a6c 7c3e
00000310: e85f a0bd e6ef 273e a872 453e 302c 1ebe
00000320: 7b46 2ebe ccca 763d ee87 5d3e 9ea0 01be
00000330: d688 25be a5eb f9bc 9e18 fcbd a52b 13be
00000340: 93bd c83d b5f1 a63d 3bbc 28be 408a 1cbe
00000350: 3a73 74be 2255 9bbd ea9f 713e 2122 17bb
00000360: d45c 863e b2ca 29be 7535 2140 7c76 1a3f
00000370: 9ed9 f53d a751 ddbd 5c99 a93e 41a4 28c0
00000380: f01a 9c3d c09b a2bb 7872 053e 8d10 723e
00000390: 3823 f7bd 0872 25be 4ca9 bb3d e0fe 3dbe
000003a0: 8218 4e3e faaa 643e c3eb 243e f2bb 2a3d
000003b0: 27fe bc3d 795a 0b3e 117e 6e3e 7de0 c6be

seed_gnn.mlp.3.0.bias f4 [15]
-0.7302043 -3.3563864 -0.5892779 -0.22975522 -0.95676285 -0.19872412 -0.16198796 -0.31093842
-0.9855309 -0.8803381 -0.011049704 -0.24408245 -0.28562295 -2.4019268 -0.45594746
00000000: abee 3abf 09cf 56c0 ebda 16bf f444 6bbe
00000010: 69ee 74bf 567e 4bbe 2ce0 25be 5233 9fbe
00000020: c14b 7cbf d65d 61bf d109 35bc c0f0 79be
00000030: 2c3d 92be 2bb9 19c0 f271 e9be

seed_gnn.mlp.4.0.weight f4 [15, 16]
0.044136155 0.060144097 0.057928875 -0.12741402 -0.016763683 0.20138413 0.1826593 -0.098638214
0.22754335 -0.10765837 -0.1482409 0.119211495 0.0010502372 0.20517057 0.2466854 -0.49313176
0.046045423 0.00016291575 0.09768201 -0.05833638 -0.0022786167 -0.029246777 -0.20799339 0.14599633
0.02880539 -0.17977938 0.100316845 -0.010071053 0.28138253 0.083471276 -0.16450717 -0.48263654
0.017941713 -0.24547896 0.1707842 0.19161269 -0.04880798 0.022138953 -0.17138267 0.11242667
-0.1217387 -0.2236023 -0.013974279 -0.19595861 -0.16908428 -0.07071856 -0.044406354 -0.12072855
0.19097717 -0.14482933 -0.08720612 -0.10133623 0.28073245 -0.20909551 -0.030203193 -0.2347599
0.2734806 0.2946411 0.27638716 -0.12503687 0.32742968 0.025897168 0.0465963 -0.39641342
0.01945547 -0.18735212 -0.26302594 0.17425457 0.15057936 -0.20682019 -0.028292477 -0.2331916
-0.2489346 0.14522843 -0.17408592 -0.17099589 -0.1938824 0.022385253 -0.03995445 -0.20309538
0.2275311 -0.08781339 0.15551458 0.113783255 0.06622809 0.014369845 0.102255315 0.08060771
0.25234243 0.030716535 0.20045651 0.10996922 -0.009461678 -0.13109995 -0.0594978 -0.3876172
-0.6467904 0.13440545 -0.42345187 -0.47742525 -0.47601828 0.16305035 0.1388315 -0.25327182
-0.6675524 -0.72460395 -0.42039633 0.14378704 0.063785546 -0.31436038 -0.34999025 -0.69567245
-0.0003129542 -0.23928684 -0.02296853 -0.0305821 -0.049167812 -0.123636454 0.02934277 -0.1616131
-0.0015044212 -0.14612818 -0.16298169 0.12339762 -0.20301107 -0.10994387 -0.18155852 -0.17692742
-0.0022954624 0.09907987 0.1926784 -0.060560953 -0.057937004 0.07245496 0.22883874 -0.032298557
-0.10488669 0.021727538 -0.06238156 -0.032421846 0.3803716 0.29492077 0.252694 -0.42944342
0.04895492 0.15492687 -0.26305935 0.28893846 0.32083476 0.080504894 0.03196463 -0.067585446
0.22624011 0.28003564 -0.0999113 -0.07698619 0.118429154 0.30290774 0.28728414 -0.5592863
-0.7607261 -0.22682941 -0.71606004 -0.42258468 -0.97207165 -0.19460538 -0.10167676 -0.24501608
-1.0808116 -0.8596483 -1.0262343 0.06969382 -0.5202993 -0.4435285 -0.43242288 -0.53008443
0.20033725 0.30024788 -0.065325044 0.2285012 0.113108 -0.24754453 -0.018384665 0.061306883
0.2253569 0.2514055 0.0664595 -0.075601935 0.29630286 0.23609823 0.42141482 -0.7235814
-0.092394166 0.11467646 0.08177529 0.12060895 0.33069643 -0.23297733 0.067502856 0.102238394
0.29183942 0.049248654 0.0035854175 0.06289994 0.12814966 0.33204466 -0.046650633 -0.44480705
-0.3585123 -0.02297169 -0.5869312 -0.038541634 -0.48958448 0.22551125 0.1698238 -0.29690912
-0.66937506 -0.44298556 -0.675007 -0.07143748 -0.062389754 0.045857422 -0.050413214 -0.46513182
0.18321957 -0.044840336 -0.032862388 0.15457919 0.21445835 -0.19068083 -0.23003164 0.010791204
0.29184666 0.42264247 0.24571432 0.04164024 0.34183356 0.1761509 0.17356323 -0.4452861
00000000: 1dc8 343d a859 763d d446 6d3d d278 02be
00000010: fe53 89bc a437 4e3e 0a0b 3b3e d502 cabd
00000020: 2001 693e fe7b dcbd 76cc 17be 2825 f43d
00000030: 1da8 893a 3c18 523e 199b 7c3e c47b fcbe
00000040: 209a 3c3d 5dd4 2a39 810d c83d 21f2 6ebd
00000050: d854 15bb f096 efbc 38fc 54be 1080 153e
00000060: 48f9 eb3c 1618 38be eb72 cd3d 0f01 25bc
00000070: 5f11 903e fdf2 aa3d 9174 28be 231c f7be
00000080: 80fa 923c d65e 7bbe 0ee2 2e3e 1e36 443e
00000090: e0ea 47bd c05c b53c f07e 2fbe f43f e63d
000000a0: 2452 f9bd 00f8 64be 60f4 64bc 60a9 48be
000000b0: 6e24 2dbe e4d4 90bd 70e3 35bd 8840 f7bd
000000c0: 858f 433e 244e 14be 1f99 b2bd 5f89 cfbd
000000d0: 2abc 8f3e 221d 56be b06c f7bc e664 70be
000000e0: a605 8c3e 33db 963e 9e82 8d3e aa09 00be
000000f0: dda4 a73e 4c26 d43c c3db 3e3d b3f6 cabe
00000100: 1461 9f3c 3cd9 3fbe 56ab 86be ca6f 323e
00000110: 7a31 1a3e acc8 53be a0c5 e7bc c7c9 6ebe
00000120: b6e8 7ebe c3b6 143e 9443 32be 8c19 2fbe
00000130: 1c89 46be 4761 b73c 47a7 23bd 3cf8 4fbe
00000140: eafd 683e 82d7 b3bd 373f 1f3e 3207 e93d
00000150: 98a2 873d 806f 6b3c 3c6b d13d a815 a53d
00000160: 0733 813e 3ea1 fb3c 7944 4d3e 8b37 e13d
00000170: 2705 1bbc 113f 06be f7b3 73bd c375 c6be
00000180: 0e94 25bf 95a1 093e afce d8be 1571 f4be
00000190: abb8 f3be acf6 263e d829 0e3e d8ac 81be
000001a0: b7e4 2abf a57f 39bf 303e d7be e93c 133e
000001b0: ffa1 823d d8f3 a0be ec31 b3be 9717 32bf
000001c0: 0014 a4b9 9c07 75be 8028 bcbc 5087 fabc
000001d0: 3064 49bd 1c35 fdbd 4060 f03c e87d 25be
000001e0: 0030 c5ba a0a2 15be ace4 26be e4b7 fc3d
000001f0: 22e2 4fbe 402a e1bd 7aea 39be 762c 35be
00000200: 786f 16bb 63ea ca3d 7d4d 453e c30e 78bd
00000210: 5a4f 6dbd 4463 943d b454 6a3e 7e4b 04bd
00000220: d5ce d6bd f3fd b13c cf83 7fbd c5cc 04bd
00000230: 11c0 c23e dbff 963e 1c61 813e 02e0 dbbe
00000240: f484 483d 26a5 1e3e b7af 86be beef 933e
00000250: 7444 a43e c0df a43d 58ed 023d 3d6a 8abd
00000260: 7dab 673e d560 8f3e 4c9e ccbd f0aa 9dbd
00000270: fc8a f23d b916 9b3e e816 933e 632d 0fbf
00000280: f2be 42bf f845 68be b64f 37bf 055d d8be
00000290: b0d9 78bf a246 47be e83b d0bd 7fe5 7abe
000002a0: 0958 8abf e911 5cbf a55b 83bf a2bb 8e3d
000002b0: 5632 05bf 2b16 e3be 8866 ddbe 9db3 07bf
000002c0: 3525 4d3e 17ba 993e 23c9 85bd 38fc 693e
000002d0: 2ba5 e73d 507c 7dbe 709b 96bc ed1c 7b3d
000002e0: f6c3 663e 39b8 803e eb1b 883d 30d5 9abd
000002f0: 02b5 973e bcc3 713e afc3 d73e a13c 39bf
00000300: 2739 bdbd 7edb ea3d ce79 a73d d301 f73d
00000310: 0b51 a93e 9c91 6ebe f03e 8a3d 5d62 d13d
00000320: fa6b 953e f5b8 493d 53f9 6a3b afd1 803d
00000330: aa39 033e c201 aa3e bc14 3fbd c0bd e3be
00000340: ed8e b7be 202f bcbc 2041 16bf d5dd 1dbd
00000350: d1aa fabe 6cec 663e 4ae6 2d3e 7904 98be
00000360: 2a5c 2bbf 01cf e2be 42cd 2cbf d04d 92bd
00000370: 668c 7fbd fed4 3b3d 167e 4ebd c225 eebe
00000380: e99d 3b3e 80aa 37bd b69a 06bd 024a 1e3e
00000390: f89a 5b3e d641 43be 6a8d 6bbe 97cd 303c
000003a0: ed6c 953e 9864 d83e 899c 7b3e f58e 2a3d
000003b0: cf04 af3e e760 343e 8fba 313e 8afc e3be

seed_gnn.mlp.4.0.bias f4 [15]
-0.18606481 -0.2190308 -0.12147465 -0.1736424 -0.59203947 -0.38328642 -0.8072445 -0.10004115
-0.3727161 -0.45836008 -0.48287466 -0.41573396 -0.73537993 -0.29762703 -0.42813578
00000000: c687 3ebe 9c49 60be b4c7 f8bd 50cf 31be
00000010: e68f 17bf 1e3e c4be 93a7 4ebf 60e2 ccbd
00000020: a5d4 bebe 2cae eabe 593b f7be 15db d4be
00000030: dc41 3cbf 9262 98be 9d34 dbbe

seed_gnn.mlp.5.0.weight f4 [15, 16]
-0.19080651 -0.19053268 0.07109478 -0.049098253 0.24673858 0.014762521 0.039663732 0.20984769
0.204936 0.00494954 -0.21195525 0.11902118 -0.18387976 0.1708807 0.08241996 0.049066424
-0.11237076 0.08026412 -0.11502296 0.016958117 0.14505595 0.17628804 -0.0969767 -0.13712075
0.2247369 -0.20335281 -0.10358244 0.1539894 -0.011500835 0.210433 0.06963456 0.026542455
0.061095685 -0.09068334 -0.066664696 -0.1807976 -0.18699613 -0.029609114 0.12670925 -0.07267344
-0.13522238 -0.1385091 0.19863376 0.088280946 0.13829389 -0.17250723 0.1880576 -0.065850586
-0.0768916 -0.19274786 -0.114078015 0.09517339 -0.14633095 0.05773768 -0.18455175 -0.14164042
-0.08374593 -0.20202687 0.13415477 -0.033134043 -0.23717383 0.23223042 0.2356447 0.07765895
-0.09321365 -0.24874425 0.12708771 -0.20291427 0.18193722 0.078810155 -0.11903459 -0.023343146
-0.053377956 0.112924576 -0.09130284 0.18824938 -0.025567263 0.112903476 0.17216638 0.06512013
0.1409145 -0.24456292 -0.22364163 -0.09558633 -0.14962211 0.12796587 0.044428766 0.011910051
0.08880034 0.06580573 0.17279759 0.013491243 -0.094085485 -0.03958246 -0.24217921 -0.044453055
0.1432068 0.1331068 0.06338656 0.10159293 -0.18909141 0.17056632 -0.1659128 0.21895573
-0.19468015 0.047258377 -0.055559278 -0.19908214 0.1006057 -0.14671335 0.07690176 -0.044508874
0.08189425 -0.10360208 0.21621451 -0.0980373 0.22614688 -0.118494034 0.09503886 -0.16277406
0.0045141876 0.2057175 -0.2240969 -0.004390627 -0.15913314 -0.08229351 -0.11327484 -0.19170332
-0.009730488 0.21016863 -0.18391922 0.19278646 0.17108744 -0.2159372 -0.12955856 0.23741138
0.06207055 -0.1444458 -0.21827957 0.18910292 -0.16663018 0.20723668 0.10762602 0.017883867
0.14936319 0.10877779 -0.008655399 0.17172238 0.17241496 0.026152551 -0.1814954 0.05184388
0.021404743 -0.098184794 -0.16020092 0.06071669 -0.17406493 -0.2491188 0.15793669 0.21627727
0.039204746 -0.22727534 0.090233594 -0.0036113858 0.13561311 0.086220115 0.01942277 -0.10639617
0.059915304 0.052851766 0.10697386 -0.13900203 -0.19230363 -0.046008795 0.19625348 0.07963207
-0.06804776 -0.11764449 0.116417885 0.20992059 0.1839008 0.0880208 0.12774262 0.011155546
0.21592757 0.14833423 -0.031479895 -0.11316976 -0.05751151 0.10770467 0.036857486 0.01948288
0.22819528 0.011667609 0.17224044 0.1440419 -0.14987713 -0.1942864 -0.084604144 -0.243399
-0.22803688 0.19618088 0.030726701 -0.19098252 -0.15439248 -0.07608715 -0.22480392 -0.05993414
0.028304309 0.23376599 0.015643269 -0.034604102 -0.21208036 0.21177226 0.16654876 0.028299749
-0.08919877 -0.041145653 0.0895336 0.08395955 -0.19243467 -0.10560408 0.019104749 -0.18671376
-0.19119981 -0.102473766 0.0771552 -0.24743548 0.23737669 0.022729278 -0.036035627 0.06979236
0.040394515 -0.08564398 0.17154062 0.0027744174 0.04820618 0.10215059 0.03021875 0.11182496
00000000: c862 43be 001b 43be 249a 913d 401b 49bd
00000010: 0aa9 7c3e 80de 713c 7076 223d 50e2 563e
00000020: beda 513e c02f a23b cc0a 59be 60c1 f33d
00000030: fa4a 3cbe 5afb 2e3e cccb a83d e0f9 483d
00000040: a422 e6bd 8461 a43d 2891 ebbd c0eb 8a3c
00000050: 8c89 143e da84 343e b89b c6bd 6269 0cbe
00000060: 6e21 663e b83b 50be 0823 d4bd 66af 1d3e
00000070: 006e 3cbc c07b 573e 909c 8e3d 906f d93c
00000080: 783f 7a3d 30b8 b9bd 8087 88bd 0223 39be
00000090: ea7b 3fbe d08e f2bc 12c0 013e d0d5 94bd
000000a0: bc77 0abe 54d5 0dbe a666 4b3e a4cc b43d
000000b0: ea9c 0d3e bca5 30be 2c92 403e acdc 86bd
000000c0: 5879 9dbd b25f 45be bca1 e9bd 44ea c23d
000000d0: c8d7 15be 587e 6c3d 22fb 3cbe 300a 11be
000000e0: fc82 abbd 22e0 4ebe de5f 093e 90b7 07bd
000000f0: b2dd 72be d0cd 6d3e d84c 713e a80b 9f3d
00000100: cce6 bebd d0b6 7ebe 4823 023e c2c8 4fbe
00000110: c04d 3a3e 3867 a13d 68c8 f3bd 203a bfbc
00000120: d8a2 5abd 0045 e73d fcfc babd 72c4 403e
00000130: 7072 d1bc f039 e73d 624c 303e b45d 853d
00000140: e44b 103e b46e 7abe 5002 65be c4c2 c3bd
00000150: 8a36 19be 7c09 033e f0fa 353d 6022 433c
00000160: f4dc b53d 28c5 863d daf1 303e 600a 5d3c
00000170: e4af c0bd 3821 22bd d4fd 77be 6814 36bd
00000180: cea4 123e 264d 083e d0d0 813d f40f d03d
00000190: 2ea1 41be f0a8 2e3e 0ce5 29be ee35 603e
000001a0: 3c5a 47be 0092 413d 2092 63bd 30dc 4bbe
000001b0: 5c0a ce3d 063c 16be ac7e 9d3d f04e 36bd
000001c0: 2cb8 a73d 542d d4bd 5667 5d3e c8c7 c8bd
000001d0: 0c93 673e 00ad f2bd bca3 c23d 3eae 26be
000001e0: c0eb 933b 9ca7 523e a879 65be 40df 8fbb
000001f0: ccf3 22be 8089 a8bd a4fc e7bd e04d 44be
00000200: a06c 1fbc 7236 573e 5255 3cbe d069 453e
00000210: 8c31 2f3e a41e 5dbe 00ab 04be f81b 733e
00000220: b03d 7e3d 9ae9 13be ae84 5fbe 32a4 413e
00000230: 1aa1 2abe da35 543e 086b dc3d 3081 923c
00000240: aaf2 183e e4c6 de3d 60cf 0dbc fed7 2f3e
00000250: 8c8d 303e e03d d63c eed9 39be 405a 543d
00000260: 0059 af3c 1c15 c9bd b60b 24be 10b2 783d
00000270: 143e 32be 0019 7fbe 28ba 213e ca77 5d3e
00000280: 2895 203d deba 68be 64cc b83d 00ad 6cbb
00000290: 2ade 0a3e 2c94 b03d 801c 9f3c 3ce6 d9bd
000002a0: c069 753d 187b 583d 1c15 db3d 8c56 0ebe
000002b0: 3eeb 44be b873 3cbd acf6 483e 2416 a33d
000002c0: a05c 8bbd 98ef f0bd 806c ee3d 6cf5 563e
000002d0: 7e50 3c3e 4044 b43d f6ce 023e c0c5 363c
000002e0: 1e1c 5d3e eee4 173e 10f1 00bd 8cc5 e7bd
000002f0: 3091 6bbd 4494 dc3d e0f7 163d 909a 9f3c
00000300: 06ac 693e 8029 3f3c cc5f 303e b87f 133e
00000310: 6479 19be 04f3 46be f044 adbd 963d 79be
00000320: 8082 69be a4e3 483e 90b6 fb3c ec90 43be
00000330: 1019 1ebe 94d3 9bbd 0033 66be 807d 75bd
00000340: 70de e73c 5a60 6f3e 5026 803c 08bd 0dbd
00000350: 982b 59be d4da 583e c28b 2a3e e0d4 e73c
00000360: d8ad b6bd 5888 28bd 645d b73d fcf2 ab3d
00000370: 980d 45be f446 d8bd 9081 9c3c e431 3fbe
00000380: e2c9 43be c4dd d1bd 8c03 9e3d ba5f 7dbe
00000390: e012 733e c032 ba3c 189a 13bd 4cef 8e3d
000003a0: b874 253d 1c66 afbd 58a8 2f3e 00d3 353b
000003b0: d873 453d 5434 d13d 508d f73c 7c04 e53d

seed_gnn.mlp.5.0.bias f4 [15]
-0.13947931 -0.17431939 -0.12993103 -0.02744037 0.07692847 -0.016019166 0.20884448 0.10823169
0.17631799 0.035261244 -0.079733014 -0.095965624 0.14052957 -0.009697765 -0.018105805
00000000: aad3 0ebe c880 32be a40c 05be a0ca e0bc
00000010: ac8c 9d3d a03a 83bc 54db 553e 94a8 dd3d
00000020: b48c 343e 186e 103d 104b a3bd a089 c4bd
00000030: fce6 0f3e 60e3 1ebc a052 94bc

seed_gnn.readout.1.0.weight f4 [1, 16]
2.6133451 2.7577484 0.22419652 1.7397723 1.645132 2.6695375 -0.9314111 -1.770656
0.19259545 0.050702304 1.677526 2.7542403 2.5681288 -1.8100026 -1.9363614 -11.850567
00000000: 0c41 2740 f37e 3040 c693 653e dcb0 de3f
00000010: af93 d23f b4d9 2a40 f570 6ebf dba4 e2bf
00000020: be37 453e 38ad 4f3d 2cb9 d63f 7945 3040
00000030: 395c 2440 2aae e7bf b1da f7bf ec9b 3dc1

seed_gnn.readout.2.0.weight f4 [1, 16]
-1.2556566 0.00022006035 0.08360687 -0.22665265 1.9596345 2.3250468 1.0390762 -0.045304507
2.2163856 -0.21544826 2.20951 -0.17510918 0.033710606 0.15105161 -0.21841696 35.77762
00000000: 5bb9 a0bf 00c0 6639 143a ab3d a217 68be
00000010: 4ed5 fa3f 91cd 1440 7300 853f 3891 39bd
00000020: 43d9 0d40 789e 5cbe 9d68 0d40 d24f 33be
00000030: 2214 0a3d 46ad 1a3e b2a8 5fbe 481c 0f42

seed_gnn.readout.3.0.weight f4 [1, 16]
2.8385167 0.16623181 0.10721456 0.6121759 -0.17467631 -0.23836398 -0.0973708 -0.23185961
0.64471865 -0.05656038 -0.39853305 -2.073903 0.67095643 0.6374444 0.63990843 15.122767
00000000: 42aa 3540 ac38 2a3e 4f93 db3d 8fb7 1c3f
00000010: 59de 32be b015 74be 586a c7bd 9b6c 6dbe
00000020: 480c 253f dbab 67bd 860c ccbe d4ba 04c0
00000030: cdc3 2b3f 8e2f 233f 0ad1 233f dbf6 7141

seed_gnn.readout.4.0.weight f4 [1, 16]
-0.4413936 -2.960001 -0.31508207 -0.187478 -0.32680863 0.22652158 -0.23373157 -0.2054323
-0.4244973 -0.38020256 -0.2300267 0.16292806 -0.020015141 -1.8328263 -0.09961559 -2.4020765
00000000: 58fe e1be a870 3dc0 7052 a1be 3cfa 3fbe
00000010: 7653 a7be 46f5 673e 5457 6fbe d85c 52be
00000020: b657 d9be e9a9 c2be 1f8c 6bbe 9dd6 263e
00000030: cbf6 a3bc 0d9a eabf 4203 ccbd 9fbb 19c0

seed_gnn.readout.5.0.weight f4 [1, 16]
0.48699874 0.5826652 -0.14341804 0.52218693 0.33818373 0.5675298 -0.678453 0.0019963086
0.55395675 0.5167514 -0.5986177 -0.6739863 0.44473156 -0.2952838 0.41919667 0.021654097
00000000: e657 f93e 8c29 153f 2edc 12be 0bae 053f
00000010: 6b26 ad3e a249 113f 19af 2dbf 80d4 023b
00000020: 1cd0 0d3f d249 043f 023f 19bf 5e8a 2cbf
00000030: dbb3 e33e 702f 97be f2a0 d63e ef63 b13c
