ckpt/SeedGNN-model-cadets-trained.pth (torch, 20321 bytes, 23 tensors)

seed_gnn.mlp.0.0.weight f4 [15, 1]
0	0xbf67aada	-0.90495074
1	0xbdb9b9d8	-0.0906865
2	0xbf628c26	-0.884951
3	0xbec54ff4	-0.38537562
4	0x3e5a5517	0.21321522
5	0xbf0abb88	-0.541924
6	0xbe20d580	-0.15706444
7	0xbc9fa9ea	-0.019490201
8	0xbeeba952	-0.4602762
9	0xbecc99c4	-0.39961064
10	0xbf67d18e	-0.9055413
11	0xbf431604	-0.7620547
12	0xbf3be7d8	-0.7340064
13	0xbeff64d0	-0.498816
14	0xbe7bc8d8	-0.24588335

seed_gnn.mlp.0.0.bias f4 [15]
0	0xbfaf9b90	-1.3719349
1	0xbfb441f7	-1.4082631
2	0xbff2d8fd	-1.897247
3	0xbd440b9b	-0.04786263
4	0xbfb761d3	-1.4326729
5	0xbf530eec	-0.82444644
6	0xbf152654	-0.5826161
7	0xbfadac07	-1.3568124
8	0xbf9fa3a5	-1.2471815
9	0xbe9f9a88	-0.31172585
10	0xbec2a95c	-0.38019836
11	0xbf76e338	-0.9644046
12	0xbf7ab6d0	-0.979352
13	0xbe90fc49	-0.28317478
14	0xbf0e0b20	-0.55485725

seed_gnn.mlp.1.0.weight f4 [15, 16]
0	0x3e767720	0.2406888
1	0xbdece274	-0.1156663
2	0x3e546fee	0.20745823
3	0xbe560a7c	-0.20902437
4	0xbd9b72d0	-0.07590258
5	0xbe7574aa	-0.23970285
6	0xbe623156	-0.22089133
7	0x3d9aa11c	0.075502604
8	0x3e557f10	0.20849252
9	0x3dfbb498	0.12290305
10	0x3e4119a8	0.18857443
11	0x3dae2518	0.08503169
12	0x3e03a906	0.12857446
13	0x3db184e8	0.08667928
14	0xbe5e8ae4	-0.2173267
15	0xbde0677c	-0.10957238
16	0x3dad6129	0.084657975
17	0xbe805cf8	-0.2507093
18	0x3e195e8b	0.14977472
19	0x3c6dc8ac	0.014513176
20	0x3dbd3e0f	0.09240352
21	0xbdb88284	-0.09009269
22	0xbd46a038	-0.04849264
23	0xbdd705cb	-0.10499152
24	0x3e7fb621	0.2497182
25	0xbcf81af0	-0.030286282
26	0xbe5d79c3	-0.2162848
27	0x3e4a88a1	0.19778682
28	0x3e284150	0.16431165
29	0xbe7c5713	-0.24642591
30	0xbe0bc69e	-0.13649985
31	0xbf02f9ca	-0.511624
32	0x3e3638e3	0.17795138
33	0xbd8a1327	-0.06741934
34	0x3d18337d	0.037158478
35	0x3da36e01	0.07979966
36	0x3e610794	0.21975547
37	0xbddbf420	-0.107399225
38	0xbcc3a4c0	-0.02388227
39	0xbd4bc47b	-0.049747925
40	0xbcd4ebfe	-0.025991436
41	0xbe54e878	-0.20791805
42	0x3e6f70f9	0.2338294
43	0xbca94f8a	-0.02066781
44	0x3e206f3e	0.15667436
45	0xbe56c71f	-0.20974396
46	0xbdc878d4	-0.09788671
47	0xbf182296	-0.59427774
48	0xbe7f9428	-0.24958861
49	0xbe0015f4	-0.12508374
50	0x3e4092d6	0.18806013
51	0xbdec59f8	-0.11540598
52	0x3dac8ba4	0.08425072
53	0x3e2b1230	0.16706157
54	0x3dbfb42c	0.09360537
55	0xbe6046ba	-0.2190198
56	0xbd8f4f38	-0.06997532
57	0xbc89e1c0	-0.016831279
58	0xbe364d5e	-0.1780295
59	0xbd654b90	-0.055980265
60	0xbc0eec20	-0.008723289
61	0xbe52f674	-0.20601827
62	0xbdd7e508	-0.10541731
63	0xbd176a40	-0.036966562
64	0xbf1580c9	-0.58399636
65	0xbf171421	-0.5901509
66	0xbd107632	-0.03526897
67	0x3da7145d	0.08158181
68	0xbbad6071	-0.0052910377
69	0xbd2c39f8	-0.04204747
70	0x3e15f3dc	0.14643806
71	0xbe840e91	-0.25792363
72	0x3e58e12c	0.21179646
73	0x3d92bc80	0.0716486
74	0x3e29d98c	0.16586894
75	0x3e1b603e	0.15173432
76	0xbe56a9a0	-0.20963144
77	0xbe87cb4f	-0.265223
78	0x3e2eeabc	0.17081732
79	0xbf23ea22	-0.64029133
80	0xbf80a1ab	-1.0049337
81	0xbf5f63fd	-0.87261945
82	0xbf192601	-0.59823614
83	0x3e75ac40	0.2399149
84	0x3e3dea1f	0.18546341
85	0xbe495030	-0.19659495
86	0xbe71c644	-0.23610789
87	0xbe1562fe	-0.14588544
88	0xbeccf841	-0.40033153
89	0xbd92f7a8	-0.07176143
90	0x3e3c7742	0.18404868
91	0xbe13e366	-0.14442214
92	0x3c58bb00	0.013228178
93	0xbd6ca578	-0.05777499
94	0xbe2cee76	-0.1688784
95	0xbf858bde	-1.0433309
96	0x3e77a89f	0.24185418
97	0xbdff11a8	-0.124545395
98	0xbe2099e1	-0.156837
99	0xbdbc59a5	-0.09196786
100	0x3cebd81c	0.028789572
101	0x3e56e5c2	0.20986083
102	0xbdfed580	-0.12443066
103	0xbdf20fdf	-0.118194334
104	0x3e63de13	0.22252683
105	0x3e62de12	0.22155026
106	0xbd8febb3	-0.07027378
107	0x3e153e31	0.14574505
108	0x3df5bed4	0.11999288
109	0xbd6e0773	-0.058112573
110	0xbd5c3098	-0.05375728
111	0xbea8ef2f	-0.32994983
112	0xbe7b171a	-0.24520531
113	0x3e033f8a	0.12817207
114	0x3db58d98	0.088648975
115	0xbd3f94f8	-0.046772927
116	0xbd7ce470	-0.061741292
117	0xbcf30770	-0.029666632
118	0x3d361320	0.044451833
119	0x3e1fc448	0.15602219
120	0x3e506fdc	0.20355171
121	0x3d16b9e8	0.036798388
122	0xbd0b1650	-0.033956826
123	0x3b367380	0.002783984
124	0x3d44eb70	0.048076093
125	0x3e6dae82	0.232111
126	0xbd09bfa8	-0.033630043
127	0xbd88d490	-0.06681168
128	0xbdfc3ea9	-0.12316639
129	0x3e08cdfa	0.13359824
130	0x3e78f6b9	0.24312867
131	0x3e6922eb	0.22767226
132	0xbe202576	-0.1563929
133	0x3e597eba	0.21239749
134	0x3d89e018	0.067321956
135	0xbe5ff5fd	-0.21871181
136	0xbe38c46a	-0.18043676
137	0xbda281e8	-0.07934934
138	0x3e7e288f	0.2482016
139	0x3e1dae32	0.15398481
140	0xbe231a60	-0.1592803
141	0xbe7478a8	-0.23874152
142	0x3ceb4370	0.02871868
143	0xbe41bf28	-0.18920577
144	0xbe6f762e	-0.23384926
145	0xbdccb088	-0.09994608
146	0xbe13ef30	-0.14446712
147	0x3ca523f0	0.020158738
148	0x3e4e2440	0.20131016
149	0xbe08765c	-0.133264
150	0xbc614a40	-0.013750613
151	0x3e6029ac	0.21890897
152	0x3e764ef4	0.24053556
153	0xbe4ec29e	-0.20191428
154	0x3e7a3dbc	0.24437612
155	0xbd67ed80	-0.056622982
156	0xbd31e980	-0.043435574
157	0x3d2ee300	0.042696953
158	0x3da45f28	0.08025962
159	0xbe22f24a	-0.15912738
160	0xbd7f8bb8	-0.062389106
161	0x3e4fa1c0	0.20276546
162	0x3e2e83a4	0.17042404
163	0xbd9c6440	-0.07636309
164	0xbcee96a0	-0.029124558
165	0x3d9a52e8	0.07535344
166	0x3d3e93f8	0.046527833
167	0x3e137b50	0.14402509
168	0x3bfaeb00	0.0076574087
169	0xbe647a8a	-0.2231237
170	0xbd297678	-0.041372746
171	0xbda64190	-0.08117974
172	0x3e203bd8	0.15647829
173	0xbe647698	-0.22310865
174	0x3e193820	0.14962816
175	0xbe210e54	-0.15728122
176	0x3b86fb85	0.004119339
177	0x3ce04b05	0.027379522
178	0x3e0fec44	0.14054972
179	0xbdfdf03c	-0.12399337
180	0x3d950877	0.07277005
181	0x3d584900	0.052803993
182	0x3d73de08	0.059537917
183	0xbdf2c8a5	-0.11854676
184	0xbd9d465c	-0.076794356
185	0x3e1c4a62	0.1526275
186	0xbc580a6b	-0.013186078
187	0xbbf41062	-0.007448242
188	0xbe49f7d8	-0.19723451
189	0xbe05b016	-0.13055453
190	0xbd8d3bb0	-0.0689615
191	0xbe25d9a6	-0.16196308
192	0xbe6ab7c1	-0.22921659
193	0xbde262fd	-0.11054037
194	0x3e005bf2	0.12535074
195	0xbdbff13d	-0.093721844
196	0x3e035b53	0.12827806
197	0x3e356db8	0.17717636
198	0x3e341df6	0.17589554
199	0x3de30dae	0.110865936
200	0xbca59ea5	-0.02021725
201	0xbdaa3b30	-0.0831207
202	0x3e02442e	0.12721321
203	0x3df1a193	0.11798396
204	0xbb5ae500	-0.0033400655
205	0xbd9b3509	-0.07578475
206	0xbc4234a0	-0.011853367
207	0xbf5b1e38	-0.85592985
208	0xbea2d930	-0.31806326
209	0xbe07ce6b	-0.13262336
210	0x3d6f0a99	0.058359716
211	0xbe200fd7	-0.15631042
212	0xbd53ddb1	-0.051725093
213	0x3c4288c0	0.011873424
214	0x3d2066d0	0.03916055
215	0xbddb2288	-0.10699946
216	0x3dcfeec4	0.10152963
217	0x3b190400	0.0023348331
218	0xbc5eb82f	-0.0135937175
219	0x3ced738d	0.028985763
220	0xbe2b7ba2	-0.16746381
221	0x3e190c58	0.14946115
222	0x3ddef050	0.1088568
223	0xbf338fbc	-0.70141196
224	0x3d282b18	0.041056722
225	0xbe183d07	-0.1486703
226	0x3e27fde9	0.16405453
227	0xbe448c7b	-0.19194214
228	0x3da5eca2	0.08101775
229	0xbc4b9dc0	-0.012427747
230	0x3e5791f2	0.21051767
231	0xbdc77c7b	-0.0974054
232	0x3dcd30f7	0.10019105
233	0xbdd6e498	-0.104928195
234	0xbdbf87f9	-0.093521066
235	0x3e1998f6	0.14999756
236	0x3dd44a20	0.10365701
237	0x3df99544	0.12186673
238	0xbc2db100	-0.010601282
239	0xbf171c72	-0.5902778

seed_gnn.mlp.1.0.bias f4 [15]
0	0xbe183596	-0.14864191
1	0xbfd92953	-1.6965736
2	0xbfdb30a6	-1.7124221
3	0xbe2ffdc6	-0.1718665
4	0xbe64225b	-0.2227873
5	0xc00efcee	-2.2341876
6	0xbef84e0f	-0.48497054
7	0xbe6f1bce	-0.2335045
8	0xbdb561db	-0.08856555
9	0xbe37591e	-0.1790509
10	0xbe2c8474	-0.16847402
11	0xbd159000	-0.036514282
12	0xbfff6919	-1.9953948
13	0xbf978c6a	-1.1839726
14	0xbfb673e2	-1.4254115

seed_gnn.mlp.2.0.weight f4 [15, 16]
0	0xbe47543e	-0.1946573
1	0xbc99fab3	-0.0187963
2	0xbe20c09f	-0.15698479
3	0x3e509638	0.20369804
4	0xbe6273f7	-0.2211455
5	0xbdb026e7	-0.0860117
6	0xbda2a918	-0.07942408
7	0x3e793d10	0.243397
8	0x3df23417	0.118263416
9	0x3cf49260	0.029854953
10	0xbe1aad9c	-0.15105289
11	0xbd37f188	-0.044908077
12	0xbd96ea3a	-0.07368894
13	0x3c8003c2	0.015626792
14	0xbdcc966c	-0.09989628
15	0xbf9c6ebb	-1.2221292
16	0x3df06998	0.117388904
17	0xbdf605c0	-0.120128155
18	0xbe37e9f4	-0.1796034
19	0x3e58a330	0.21156001
20	0xbe77e9a8	-0.24210227
21	0xbedcb8c2	-0.4310971
22	0xbe61e750	-0.22060895
23	0xbd9a3e30	-0.075313926
24	0xbe41e08a	-0.18933311
25	0xbe1798ac	-0.14804333
26	0x3cfa5e70	0.03056261
27	0xbe04d43c	-0.12971586
28	0xbe089790	-0.13339067
29	0x3e45f428	0.1933142
30	0x3e3d7234	0.18500596
31	0xbf39541f	-0.72393984
32	0x3d1becb8	0.03806755
33	0xbe06f210	-0.13178277
34	0xbe0e874e	-0.13918802
35	0x3e08c034	0.1335457
36	0x3e84f0c7	0.2596495
37	0xbd47127c	-0.048601612
38	0x3e67f804	0.22653204
39	0xbdbc10a4	-0.091828614
40	0xbe4345ca	-0.19069591
41	0x3e7471fe	0.2387161
42	0x3e0ec1ae	0.1394107
43	0x3e02f500	0.12788773
44	0x3ea16fa3	0.31530485
45	0x3e7d80d0	0.2475617
46	0xbe227318	-0.15864217
47	0xbe8418bc	-0.2580012
48	0x3dc98788	0.09840304
49	0x3e2d2a49	0.16910662
50	0x3e503f39	0.20336618
51	0xbe11869a	-0.14211503
52	0xbe1c3fcd	-0.15258713
53	0xbe465c17	-0.19371067
54	0x3e387952	0.1801503
55	0xbbd51b80	-0.0065035224
56	0xbd9544aa	-0.07288487
57	0x3e7e5e62	0.24840692
58	0xbe6397fc	-0.22225946
59	0x3e3b4bc2	0.18290618
60	0x3cdfae35	0.027304748
61	0x3e1a868f	0.15090393
62	0xbda71ced	-0.08159814
63	0xbe80e69e	-0.25175947
64	0xbe2a7418	-0.16645849
65	0x3e5dc07c	0.21655458
66	0x3e0da70b	0.13833253
67	0x3d499d40	0.04922223
68	0x3f0d01a0	0.55080605
69	0x3d590ae6	0.05298891
70	0x3e04e735	0.12978823
71	0xbbe58380	-0.0070042014
72	0xbc2d58f6	-0.010580292
73	0x3e4d90e4	0.20074803
74	0x3e23a5ca	0.15981212
75	0xbe1258dd	-0.14291711
76	0x3eea343b	0.45742974
77	0x3f1a7e83	0.6034929
78	0xbe2c44ee	-0.1682317
79	0xbf9c101f	-1.219242
80	0xbe1e3a42	-0.15451911
81	0x3e1a3cac	0.15062207
82	0x3d6171a9	0.055040035
83	0xbe3e1a50	-0.18564725
84	0x3ea204c5	0.31644264
85	0x3de56a87	0.11201959
86	0xbe4b6bb3	-0.19865303
87	0xbe1898bc	-0.14902014
88	0x3e624bda	0.22099248
89	0xbd91e180	-0.07123089
90	0xbdf5f930	-0.12010419
91	0xbd416c68	-0.047222525
92	0x3e25fbc3	0.1620932
93	0x3dc16c9e	0.09444545
94	0x3e542069	0.20715488
95	0xbef6246b	-0.4807466
96	0xbe32759c	-0.17427677
97	0xbcb0e2f0	-0.021592587
98	0x3ce1b030	0.027549833
99	0x3e7b4c3a	0.24540797
100	0x3e9f711b	0.3114098
101	0xbe2910ea	-0.16510358
102	0xbc9fbb50	-0.019498497
103	0x3e3a5f40	0.18200397
104	0xbc63ede0	-0.013911694
105	0x3dc908d8	0.0981614
106	0x3e295a36	0.16538319
107	0x3d93c214	0.07214752
108	0x3e76898c	0.24075907
109	0x3ec631e2	0.38709933
110	0xbe56245e	-0.2091231
111	0xc0099474	-2.1496859
112	0xbe03da54	-0.12876254
113	0xbddc7922	-0.10765292
114	0x3e5cdca9	0.2156855
115	0x3e18a30c	0.14905947
116	0xbe59ec20	-0.21281481
117	0xc00c9bcc	-2.197009
118	0x3e0c6162	0.13709024
119	0xbda9a308	-0.08283049
120	0x3e27a634	0.16371995
121	0xbda5bbf8	-0.08092493
122	0xbdeaa0e8	-0.11456472
123	0xbdc2a718	-0.09504527
124	0x3e232c69	0.1593491
125	0xbe1f7d3a	-0.15575114
126	0xbe647558	-0.22310388
127	0xc01fb81e	-2.4956126
128	0xbd9cbb38	-0.07652897
129	0x3dda8d83	0.106715225
130	0xbd4e26fb	-0.050330143
131	0xbe70dde4	-0.23522145
132	0x401fbcf5	2.495908
133	0xc047d429	-3.1223242
134	0x3e7f32a8	0.24921668
135	0xbc84cfe0	-0.016212404
136	0x3d97df22	0.07415606
137	0xbe6cd370	-0.23127532
138	0xbe42d0ba	-0.19024935
139	0xbd9ef232	-0.07761039
140	0x3ff665ca	1.9249814
141	0x40181b79	2.3766768
142	0x3e48e148	0.19617188
143	0xbf1fe6cc	-0.62461543
144	0xbd85fbdc	-0.06542179
145	0x3d518b49	0.051158223
146	0x3b5d9e2a	0.0033816197
147	0x3e08afda	0.13348332
148	0x3e8d82c7	0.27638838
149	0xbe632d7a	-0.22185317
150	0x3e6b744a	0.2299358
151	0x3e6a7968	0.22897875
152	0x3e304d67	0.17217027
153	0x3e5c2e3c	0.21502012
154	0x3d340db8	0.043958396
155	0x3c99b040	0.0187608
156	0x3e7772c4	0.24164873
157	0x3da5c4b5	0.080941595
158	0x3e752e80	0.2394352
159	0xbed268d9	-0.41095617
160	0xbe0a57d4	-0.13510066
161	0xbe7ef5e1	-0.24898483
162	0xbc91f1df	-0.017815528
163	0x3e012992	0.12613514
164	0x3e784b0b	0.24247377
165	0xbe411e0f	-0.18859123
166	0x3e7bf908	0.24606717
167	0x3e1dc470	0.15406966
168	0xbe5d2bc7	-0.21598731
169	0x3dd80a5c	0.10548851
170	0x3da560b0	0.08075082
171	0xbdd3e964	-0.1034725
172	0xbe4c97a3	-0.1997972
173	0xbe133eb3	-0.14379387
174	0xbdb7a34b	-0.089666925
175	0xbe591be0	-0.2120204
176	0xbcce3890	-0.025173455
177	0x3e927e39	0.28611925
178	0xbe2a00a7	-0.16601811
179	0xbd30c900	-0.04316044
180	0x3ed8bcff	0.42331693
181	0x3bc3ac1d	0.0059714452
182	0x3e037e80	0.12841225
183	0xbe70e530	-0.23524928
184	0x3e0a3ef4	0.13500577
185	0xbe48bcb4	-0.19603235
186	0xbe1e456c	-0.1545617
187	0x3e63648f	0.22206329
188	0x3e8ef13f	0.2791843
189	0xbd7fde3d	-0.062467802
190	0xbccfd267	-0.025368882
191	0xbf6b7a66	-0.9198364
192	0x3d526960	0.051370025
193	0x3e43ccb6	0.1912106
194	0x3dcda0f5	0.10040466
195	0xbe4b8608	-0.19875348
196	0xbe156a3a	-0.14591303
197	0xc009cf53	-2.153279
198	0x3e6f8fa6	0.23394641
199	0xbd1ec478	-0.038761586
200	0xbdd9148a	-0.10599621
201	0x3e560cc0	0.20903301
202	0x3e226c3a	0.15861598
203	0xbdebe7f4	-0.11518851
204	0xbe47993f	-0.19492052
205	0x3e0ba9b2	0.13638952
206	0xbe3edbd0	-0.1863854
207	0xc01ab452	-2.4172559
208	0x3e46c9f8	0.19412982
209	0x3cd0063b	0.025393596
210	0xbde8cb91	-0.11366952
211	0x3e4e4252	0.20142487
212	0xbe7f7d28	-0.24950087
213	0xbe5a02e0	-0.21290159
214	0xbe5170f0	-0.20453238
215	0x3e0152a0	0.12629175
216	0xbdd7b739	-0.10532994
217	0x3e5b9070	0.21441817
218	0xbde05334	-0.1095337
219	0x3d56e417	0.052463617
220	0x3e6a750b	0.22896211
221	0xbe4a07b4	-0.19729501
222	0x3e52db10	0.20591378
223	0xbee4a893	-0.44659862
224	0x3e1f439a	0.15553132
225	0x3c9cd1c4	0.019142993
226	0x3e4710b6	0.19439968
227	0x3e1fb572	0.1559656
228	0x3dffc183	0.12488081
229	0x3d2ac11d	0.041688073
230	0x3d7ebcda	0.06219182
231	0x3d8db8b8	0.06919998
232	0x3deb96dd	0.11503384
233	0xbe37675a	-0.17910519
234	0x3c063500	0.008191347
235	0x3e665ad2	0.22495583
236	0xbda3b0d7	-0.07992714
237	0xbd935f8f	-0.07195961
238	0x3e89e319	0.26931074
239	0xbf5606fc	-0.8360441

seed_gnn.mlp.2.0.bias f4 [15]
0	0xbeac7cea	-0.33689052
1	0xbf0fdcc5	-0.5619624
2	0xbe31dd25	-0.17369516
3	0xbebe332b	-0.37148413
4	0xbf3266a9	-0.69687897
5	0xbf0695e9	-0.52572495
6	0xbf69af4d	-0.9128311
7	0xbff0e6ab	-1.8820394
8	0xc00f30ce	-2.2373538
9	0xbe418474	-0.18898183
10	0xbe2fbd90	-0.17162156
11	0xbee83640	-0.4535389
12	0xbfd90d48	-1.6957178
13	0xbec89a67	-0.391803
14	0xbe86a151	-0.2629495

seed_gnn.mlp.3.0.weight f4 [15, 16]
0	0x3e404a6b	0.18778388
1	0x3e089964	0.13339764
2	0x3c075200	0.008259296
3	0x3ac4541a	0.0014978678
4	0x3dd72ea1	0.10506941
5	0xbe03466e	-0.12819836
6	0x3e4265c8	0.18984139
7	0x3e19cce8	0.15019572
8	0xbe730362	-0.23731759
9	0x3cdbb5af	0.026820032
10	0x3e23fc29	0.1601416
11	0xbe90fb1d	-0.28316584
12	0x3c893062	0.016746704
13	0x3df34d7c	0.11880013
14	0xbd58dfa4	-0.052947655
15	0xbe17c97d	-0.14822955
16	0x3e533d1e	0.20628783
17	0xbdd55a40	-0.104176044
18	0x3e59820a	0.21241012
19	0x3df936ac	0.12168631
20	0x3e129eec	0.14318436
21	0xbd954a78	-0.072895944
22	0xbdcd7dfc	-0.10033795
23	0x3e54f8b0	0.20797992
24	0xbe48c3a8	-0.19605887
25	0xbe440ee4	-0.19146305
26	0xbd1f7ca0	-0.03893721
27	0xbe3131ca	-0.1730415
28	0x3e2f7306	0.17133722
29	0x3d02a740	0.031897783
30	0x3ccbfaa0	0.02489978
31	0xbe0904d8	-0.13380754
32	0xbe68dc9c	-0.22740406
33	0xbe3a8d38	-0.18217933
34	0x3cbbc0d0	0.022919089
35	0xbe33372d	-0.17501517
36	0xbe069805	-0.13143928
37	0x3e50c646	0.20388135
38	0xbe775660	-0.24154043
39	0x3d0ff278	0.035143346
40	0xbcab7937	-0.020931823
41	0xbe470b9c	-0.19438022
42	0x3e083b9e	0.13303992
43	0xbe8916f5	-0.26775327
44	0x3ca34ea0	0.019934952
45	0xbd992aae	-0.07478844
46	0x3e4fde25	0.20299585
47	0xbe461b22	-0.19346288
48	0xbe7c56c4	-0.24642473
49	0xbd50e210	-0.05099684
50	0xbddbf390	-0.10739815
51	0x3d142c09	0.036174808
52	0xbedc39d2	-0.43012863
53	0x3e2a0884	0.16604811
54	0xbda732b5	-0.081639685
55	0x3e436a62	0.1908355
56	0xbf8af3b5	-1.0855623
57	0x3b197031	0.0023412819
58	0xbe392767	-0.18081437
59	0x3d00479c	0.031318292
60	0xbe3b51c9	-0.18292917
61	0xbca08f01	-0.01959944
62	0x3e10b5ea	0.14131895
63	0xc0079369	-2.1183722
64	0xbe76d782	-0.24105647
65	0xbe40b74c	-0.18819922
66	0xbd6f4f88	-0.058425456
67	0x3e08efde	0.13372752
68	0xbe08d1c8	-0.13361275
69	0x3d2583f0	0.04040903
70	0x3e4d6cf8	0.200611
71	0xbe5ab486	-0.21357927
72	0xbe6b5cfe	-0.22984692
73	0x3e0b3676	0.13594994
74	0xbd172e58	-0.03690943
75	0xbe745c86	-0.2386342
76	0x3da8312c	0.08212504
77	0xbe447410	-0.191849
78	0xbdf32210	-0.11871731
79	0xbd040ae0	-0.032236934
80	0x3e77ce68	0.24199831
81	0xbbfe2b00	-0.007756591
82	0x3e192c22	0.14958242
83	0x3ddb24d8	0.10700387
84	0xbd552022	-0.052032597
85	0x3e7b64b5	0.24550135
86	0xbdfa36c2	-0.122174755
87	0xbe7bf680	-0.24605751
88	0xbeb590b1	-0.35461953
89	0xbdc06f2d	-0.09396205
90	0x3dc79a5c	0.097462386
91	0x3dcb4b21	0.09926439
92	0x3e186e71	0.1488588
93	0x3e86b463	0.263095
94	0x3e44226c	0.19153756
95	0xbfa0b1f5	-1.2554308
96	0x3e0e4250	0.13892484
97	0x3e308a3c	0.17240232
98	0x3d243c88	0.04009679
99	0xbca2ba30	-0.019864172
100	0xbbd927c0	-0.006627053
101	0x3d6e1070	0.058121145
102	0x3e4b3c30	0.19847178
103	0x3ddd9e38	0.108211935
104	0xbe62c73c	-0.22146314
105	0x3c81fba0	0.015867054
106	0xbcdca970	-0.026936263
107	0xbe5a19fa	-0.21298972
108	0xbe714e60	-0.23565054
109	0xbc1200c0	-0.008911312
110	0x3df0870c	0.11744508
111	0xbdf46c0c	-0.11934671
112	0x3ded2288	0.11578852
113	0x3e45c96c	0.19315118
114	0xbe5e1134	-0.2168625
115	0xbe72e1a0	-0.23718882
116	0xbd8c2c1d	-0.068443514
117	0x3e35d443	0.17756753
118	0x3e3c4992	0.1838744
119	0x3e27a61a	0.16371956
120	0xbcae858f	-0.02130392
121	0xbc5dc320	-0.013535291
122	0x3dead26c	0.11465916
123	0x3d1e75b9	0.038686488
124	0x3e15e4c6	0.14638051
125	0x3db0f8a0	0.086411715
126	0xbca596eb	-0.020213565
127	0xbe77378a	-0.2414228
128	0xbe436bd9	-0.1908411
129	0xbd8f2c0c	-0.06990823
130	0xbc266ac0	-0.010157287
131	0x3e60226f	0.21888135
132	0xbe492c3b	-0.19645779
133	0x3e6f673b	0.23379223
134	0x3e484626	0.1955801
135	0x3e69d0ac	0.22833508
136	0xbdfcc8bb	-0.12342974
137	0xbe34833d	-0.17628188
138	0x3e4361a4	0.19080216
139	0x3da14720	0.07874894
140	0x3e7e302b	0.24823062
141	0x3da5bd9d	0.080928065
142	0xbad29752	-0.0016066825
143	0xbda99fb4	-0.08282414
144	0x3db26f19	0.087125964
145	0xbce1ed80	-0.02757907
146	0x3dd7e778	0.10542196
147	0xbdb04e46	-0.086086795
148	0xbe510320	-0.20411348
149	0xbd76ff45	-0.060302038
150	0x3e27b0b6	0.16376004
151	0xbdd92808	-0.106033385
152	0xbe7e0857	-0.24807869
153	0x3c909526	0.017649245
154	0xbd8006ac	-0.062512726
155	0x3dae3512	0.08506216
156	0xbe62d20b	-0.22150438
157	0x3e0f5d19	0.14000358
158	0x3d96b581	0.07358838
159	0xbd85a1b4	-0.06524983
160	0xbd0a61fa	-0.033784844
161	0xbe29809e	-0.1655297
162	0x3e1ce623	0.15322165
163	0x3c021ecc	0.007941913
164	0x3e631f77	0.22179972
165	0x3de521c0	0.11188078
166	0x3dd87ad7	0.10570305
167	0x3e162a06	0.14664468
168	0xbeab2451	-0.33426145
169	0x3e13f2ea	0.14448133
170	0xbdcb9b64	-0.09941748
171	0xbe4dd415	-0.20100434
172	0xbd885336	-0.06656496
173	0xbe35b9b6	-0.17746624
174	0xbd1c1dc1	-0.038114313
175	0xbe978c5b	-0.2959927
176	0x3e828d21	0.25498298
177	0x3e6992e6	0.22809944
178	0xbe52c12a	-0.20581499
179	0x3be3b649	0.0069492203
180	0xbed2a6c5	-0.4114286
181	0xbea70cd9	-0.3262699
182	0xbe9fde07	-0.3122408
183	0xbc273220	-0.010204822
184	0xc037f55d	-2.8743508
185	0x3e31c7ff	0.17361449
186	0x3e7544d7	0.23952042
187	0xbe8b8e5e	-0.27257055
188	0x3d380be1	0.044933204
189	0x3d7b2438	0.061313838
190	0xbcec0649	-0.02881159
191	0xbfd9cbfc	-1.7015376
192	0x3d120033	0.03564472
193	0xbe43272c	-0.19057912
194	0xbe546b36	-0.20744023
195	0x3e70f436	0.23530659
196	0x3e4f2aaf	0.20231126
197	0xbde4c446	-0.11170249
198	0xbe2bb1ca	-0.1676704
199	0x3ce304c0	0.027712226
200	0xbe7dc3dd	-0.24781747
201	0x3df0d194	0.11758724
202	0xbd916104	-0.070985824
203	0x3d848cc4	0.064721614
204	0xbd2c7570	-0.042104185
205	0x3d175bf6	0.036952935
206	0xbc25c908	-0.01011873
207	0xbe2f0e07	-0.17095195
208	0x3dc653e8	0.096839726
209	0x3e08d220	0.13361406
210	0x3cc1362d	0.023585403
211	0xbe83ac45	-0.2571737
212	0xbe0e2a6d	-0.13883372
213	0xbe7654a6	-0.24055728
214	0x3df15a9e	0.11784862
215	0xbcd2c995	-0.025730887
216	0xbea4803b	-0.32129082
217	0x3c2e6ba4	0.010645781
218	0xbd654fbf	-0.055984255
219	0xbe828423	-0.25491437
220	0x3e488118	0.19580495
221	0xbe10c205	-0.14136513
222	0xbdb0755d	-0.08616135
223	0xbf77ea29	-0.96841675
224	0xbe63f36b	-0.22260825
225	0x3d372118	0.044709295
226	0x3d7a6d64	0.06113948
227	0xbdf6db08	-0.12053496
228	0xbe147db6	-0.1450108
229	0xbe4fee8a	-0.20305839
230	0xbe0907d5	-0.13381894
231	0xbdcd613c	-0.100283116
232	0xbf81ae9e	-1.0131414
233	0xbe009a43	-0.12558846
234	0xbdc179cf	-0.09447061
235	0x3e64effa	0.22357169
236	0xbb413f13	-0.0029487058
237	0xbde3f1a7	-0.11130076
238	0x3df5e9d9	0.120074935
239	0xbead8e6e	-0.33897728

seed_gnn.mlp.3.0.bias f4 [15]
0	0xbeecb8d1	-0.46234754
1	0xbe0d8792	-0.13821247
2	0xbe37ffd2	-0.17968681
3	0xc0399866	-2.8999267
4	0xbda83f88	-0.082152426
5	0xc0179385	-2.3683789
6	0xbe6222ac	-0.22083539
7	0xbe47ec1b	-0.19523661
8	0xbf22990e	-0.6351479
9	0xbefc87fc	-0.49322498
10	0xbf748c58	-0.9552665
11	0xbfdb41c1	-1.7129441
12	0xbe87224b	-0.2639335
13	0xbeb07216	-0.3446204
14	0xc00c1448	-2.1887379

seed_gnn.mlp.4.0.weight f4 [15, 16]
0	0xbd04136c	-0.032245085
1	0xbe5d2cae	-0.21599075
2	0x3dd1999b	0.10234376
3	0xbe2a0ca9	-0.16606392
4	0x3e55d8d0	0.20883489
5	0xbe0f4ca9	-0.13994087
6	0x3e70c246	0.2351161
7	0xbde3103c	-0.11087081
8	0x3e567d63	0.20946269
9	0xbd29fa45	-0.04149844
10	0xbe3aaf24	-0.18230873
11	0x3cef9020	0.029243529
12	0xbd028cb8	-0.03187248
13	0xbe37fb2d	-0.1796691
14	0xbdf7bef4	-0.12096968
15	0xbf047388	-0.51738787
16	0x3e71226d	0.23548289
17	0xbdb8ff98	-0.09033126
18	0xbe0cfed5	-0.13769086
19	0xbe60d9c3	-0.2195807
20	0x3d102918	0.03519544
21	0x3e0a1176	0.13483223
22	0x3e1ce12e	0.15320274
23	0x3dc98a3c	0.09840819
24	0xbd2ab63a	-0.04167769
25	0x3c69ef71	0.014278279
26	0x3d027d92	0.031858034
27	0xbe16e92f	-0.1473739
28	0x3dc26491	0.09491838
29	0x3dae5e01	0.085140236
30	0xbe450590	-0.19240403
31	0xbeb1a248	-0.34694123
32	0xbddd401b	-0.10803243
33	0xbe5085fc	-0.20363611
34	0x3e446dd7	0.19182526
35	0xbe7f908e	-0.24957487
36	0x3e7ca6f6	0.24673066
37	0x3e49d6f5	0.19710906
38	0x3dd8eec4	0.10592416
39	0x3e0ad73a	0.13558665
40	0x3e6f8e5f	0.23394154
41	0xbe3c9799	-0.18417205
42	0x3dd52bb5	0.10408727
43	0xbdfe7adc	-0.12425777
44	0x3e000256	0.12500891
45	0xbdb6c8b9	-0.089250036
46	0xbd827022	-0.06369044
47	0xbdafb354	-0.08579126
48	0x3d6be863	0.057594668
49	0x3e1e3d0a	0.15452972
50	0xbdae31b8	-0.08505577
51	0xbdaf2658	-0.08552235
52	0xbd519288	-0.051165134
53	0x3db34cfc	0.08754918
54	0x3d881cb0	0.06646097
55	0x3cbe13e0	0.023202837
56	0x3db6c212	0.08923735
57	0x3e12fcc1	0.1435423
58	0xbc8c118e	-0.017098214
59	0xbd9d0c01	-0.07668305
60	0x3dbbed68	0.09176141
61	0x3dd276f5	0.102765955
62	0xbc52448b	-0.012833725
63	0xbdd57376	-0.10422413
64	0xbbbb5b22	-0.005717651
65	0xbd93d7f4	-0.07218924
66	0x3e446c70	0.1918199
67	0xbeee50bf	-0.4654598
68	0x3e3e7d72	0.18602541
69	0x3fc38007	1.5273446
70	0xbdb3e914	-0.087846905
71	0xbe21374f	-0.15743755
72	0xbd8f10e5	-0.06985644
73	0x3df4ec62	0.11959149
74	0xbe821c0c	-0.25412023
75	0xbef99e8a	-0.48753768
76	0xbd59f9a5	-0.053216595
77	0x3d05aaa0	0.032633424
78	0x3fe8d522	1.8190043
79	0xc0f5a813	-7.676767
80	0x3e319c06	0.17344674
81	0x3e08a202	0.13343051
82	0xbe7dbf04	-0.24779898
83	0x3d2ddcae	0.042446785
84	0x3c953ea0	0.018218338
85	0x3e19d055	0.15020879
86	0xbd9e49c8	-0.077289164
87	0x3e6d96b2	0.23202017
88	0xbe13035c	-0.1435675
89	0xbe62a7fb	-0.22134392
90	0xbe6e494c	-0.23270148
91	0xbf0cbd20	-0.5497608
92	0x3e6e49fe	0.23270413
93	0x3d94fe74	0.072750956
94	0x3d8ccab9	0.06874604
95	0xbe977c1f	-0.29586884
96	0xbe0fb792	-0.1403487
97	0x3e3b47e2	0.1828914
98	0xbe75d40c	-0.2400667
99	0xbe172dde	-0.1476359
100	0xbe5c897c	-0.21536821
101	0xbc205627	-0.009786165
102	0xbe4f0dea	-0.20220152
103	0x3d532e38	0.05155775
104	0x3df684ec	0.120370716
105	0x3d172500	0.03690052
106	0x3e64f3e9	0.2235867
107	0x3e675292	0.22590092
108	0xbb97ef00	-0.0046366453
109	0x3c9d3e97	0.019194884
110	0xbe521263	-0.20514826
111	0xbe33c7a4	-0.17556626
112	0x3c4279e0	0.011869878
113	0x3de4a3f4	0.11164084
114	0xbe47c5d2	-0.19509056
115	0xbebd9080	-0.37024307
116	0xbe123768	-0.14278948
117	0x3d9d5306	0.07681851
118	0x3e751c54	0.23936588
119	0x3e73df54	0.23815662
120	0xbdc6ba9c	-0.09703562
121	0xbd04e968	-0.032449156
122	0xbe409000	-0.18804932
123	0xbfb29085	-1.3950354
124	0x3d847005	0.064666785
125	0x3d374ca5	0.04475083
126	0x3d839cc9	0.06426389
127	0xc028434a	-2.629107
128	0x3c37150f	0.011174454
129	0xbd38e3c8	-0.045139104
130	0xbe48e7d0	-0.1961968
131	0xbdac9f1f	-0.084287874
132	0x3d73e9b8	0.059549063
133	0x3dad99d8	0.08476609
134	0xbd94ccfc	-0.0726566
135	0x3d8b1874	0.067917734
136	0x3e186b89	0.14884771
137	0x3e6f97eb	0.23397796
138	0xbe4eef64	-0.20208508
139	0xbe7fa8e6	-0.24966773
140	0x3d017920	0.031609654
141	0xbe26c0cc	-0.16284484
142	0x3e30c35f	0.17262028
143	0xbe583aea	-0.21116224
144	0x3dea07c0	0.114272594
145	0xbc13ac00	-0.009013176
146	0x3da893dd	0.08231328
147	0x3ee20fea	0.44152766
148	0x3ced8d70	0.028998107
149	0x3fdc1e59	1.7196761
150	0x3e7acede	0.24492976
151	0xbc76e926	-0.015070235
152	0xbe20ccbb	-0.15703098
153	0xbd5ed023	-0.054397713
154	0x3d9901ea	0.07471068
155	0xbdf352d1	-0.1188103
156	0xbe0dcc01	-0.13847353
157	0xbdedbd23	-0.116083406
158	0x3fd76591	1.6827871
159	0xc118c86a	-9.548929
160	0x3e281e2a	0.16417757
161	0x3e4a19a0	0.19736338
162	0x3deb58dc	0.11491558
163	0x3d175800	0.036949158
164	0x3e14d69e	0.14534995
165	0x3e078378	0.13233745
166	0x3e5ca918	0.21548879
167	0xbd45adc8	-0.048261434
168	0xbd4e63c0	-0.050388098
169	0xbe531000	-0.20611572
170	0x3d2be398	0.041965097
171	0xbc964550	-0.018343598
172	0xbe16f704	-0.14742666
173	0xbe10f722	-0.14156774
174	0xbdb84018	-0.089966
175	0xbe39ce1e	-0.18145034
176	0xbe1c9aae	-0.1529338
177	0xbe5f7f8c	-0.21825999
178	0xbcbe17b9	-0.023204671
179	0xbda58590	-0.08082116
180	0xbdea567c	-0.11442277
181	0x3fad313e	1.3530653
182	0x3beb9e40	0.0071904957
183	0x3de0ad73	0.10970583
184	0xbe4834de	-0.19551417
185	0xbe21d532	-0.15803984
186	0xbe029278	-0.12751186
187	0x3ffc55a3	1.9713634
188	0xbdeb2448	-0.114815295
189	0x3f8768ba	1.0578835
190	0x3fc80cb6	1.5628879
191	0x423d710b	47.360394
192	0x3dde116b	0.10843166
193	0xbe65c62e	-0.22438881
194	0x3e0b6047	0.13610946
195	0x3d0722cc	0.03299217
196	0xbe340fb6	-0.17584118
197	0xbe7466b9	-0.2386731
198	0x3e035a2a	0.12827364
199	0xbd3a5d88	-0.045499355
200	0xbca6df10	-0.020370036
201	0x3e1217a7	0.14266835
202	0xbe61c807	-0.2204896
203	0xbb065318	-0.0020496305
204	0xbda32543	-0.079660915
205	0x3e0b7695	0.13619454
206	0x3dd848c2	0.105607525
207	0xbd42bc68	-0.04754296
208	0x3bb7e1c0	0.0056116283
209	0x3e287092	0.16449192
210	0x3dd9ebe4	0.10640696
211	0xbe6710c4	-0.2256499
212	0x3e7e7c2a	0.24852052
213	0xbd9405d8	-0.07227677
214	0x3e6d29c6	0.23160467
215	0x3db05ba8	0.08611232
216	0x3e62c9ca	0.22147289
217	0xbcc668d0	-0.0242199
218	0x3def3d20	0.116815805
219	0xbe07c1dc	-0.13257545
220	0xbdd6a06c	-0.10479817
221	0xbdd87414	-0.10569015
222	0xbe764b78	-0.24052227
223	0xbe7f9cf8	-0.24962223
224	0xbe6c8950	-0.23099256
225	0x3e3bc874	0.18338186
226	0xbdfb4ee4	-0.122709066
227	0x3e6c42d6	0.23072371
228	0x3e5aa138	0.21350563
229	0xbd4d8d4e	-0.050183587
230	0xbab1d700	-0.0013568103
231	0xbe061480	-0.13093758
232	0xbdb58fef	-0.08865344
233	0xbc69923d	-0.014256057
234	0x3e06bbfb	0.13157646
235	0xbd963c6e	-0.07335745
236	0xbdd9307c	-0.10604951
237	0x3e25b8a9	0.16183724
238	0xbd343756	-0.043998085
239	0xbcbfe1f6	-0.023423176

seed_gnn.mlp.4.0.bias f4 [15]
0	0xbf1a4c6d	-0.60272866
1	0xbef88bf9	-0.4854429
2	0xbed552f3	-0.41664848
3	0xbffeddfe	-1.9911497
4	0xbf7bcb93	-0.98357505
5	0xbf348c24	-0.7052634
6	0xbe39fbee	-0.1816251
7	0xc053f37f	-3.3117368
8	0xbe181be1	-0.14854385
9	0xbf887523	-1.0660747
10	0xbe4c5ce6	-0.19957313
11	0x42d2ce03	105.40237
12	0xbefd3766	-0.49456328
13	0xbd4df4d0	-0.0502823
14	0xbe22aa36	-0.15885243

seed_gnn.mlp.5.0.weight f4 [15, 16]
0	0x3e15f9e0	0.14646101
1	0x3e57f6dd	0.21090265
2	0xbe59df4a	-0.21276584
3	0x3e5d24f2	0.21596125
4	0xbec6ebc3	-0.38851747
5	0xbcdc93cb	-0.026925942
6	0xbe275a9b	-0.16343157
7	0xbea2dfbe	-0.31811327
8	0x3e43025f	0.19043873
9	0xbfb10a4f	-1.3831271
10	0xbddd0ec8	-0.10793835
11	0xc17c0b2a	-15.752726
12	0xbe4e18bc	-0.20126623
13	0x3e661bb0	0.224715
14	0xbcd2ce09	-0.02573301
15	0xc066486f	-3.598171
16	0x3e6ab7f3	0.22921734
17	0x3e290c97	0.16508709
18	0xbe233425	-0.1593786
19	0xbde3ef88	-0.11129671
20	0x3d3aa799	0.04556999
21	0xbe1454b4	-0.14485437
22	0xbd662aa8	-0.056193024
23	0x3c44d2c0	0.012013137
24	0xbea2ab04	-0.317711
25	0x3cfee33b	0.031114211
26	0x3d762400	0.060092926
27	0xbe24d269	-0.1609589
28	0xbe87c167	-0.26514742
29	0xbe3904aa	-0.18068185
30	0xbd4e61bb	-0.05038617
31	0xbed85bbf	-0.42257497
32	0x3c9b0fca	0.018928427
33	0x3e3d6eb1	0.18499257
34	0xbe57d242	-0.210763
35	0x3e5c2b49	0.21500887
36	0x416bda79	14.740838
37	0x3cc2c0f9	0.023773657
38	0xbe0daf38	-0.13836372
39	0xbee87ab5	-0.45406118
40	0x3ef05398	0.46938777
41	0x4153e68b	13.243785
42	0x3e5e9654	0.21737033
43	0xc17321c2	-15.195742
44	0xbe13ed5d	-0.14446016
45	0xbe2dc858	-0.16970956
46	0xbe4e2442	-0.20131019
47	0xc0ac9fc9	-5.394505
48	0xbd1f26f8	-0.038855523
49	0x3d9043e3	0.07044198
50	0xbd67f074	-0.0566258
51	0x3e339260	0.17536306
52	0xbf3bd22f	-0.7336759
53	0xbdd9d54d	-0.10636387
54	0x3e3c8920	0.18411684
55	0x3de8c24a	0.11365183
56	0x3e004bd3	0.12528925
57	0xbec7c179	-0.39014795
58	0x3d1acea0	0.03779471
59	0xbeb6b7a5	-0.35686985
60	0xbe217919	-0.15768851
61	0xbd8f5130	-0.06997907
62	0x3e085f4c	0.13317603
63	0xbee5507c	-0.44787967
64	0xbe487c4c	-0.19578665
65	0x3e7736a6	0.2414194
66	0x3e57f32d	0.21088858
67	0xbe65a2f1	-0.22425438
68	0x40cb6c7c	6.3569927
69	0x3ea64d76	0.32480973
70	0x3d873a81	0.066029556
71	0xbd77a57d	-0.060460556
72	0x3e8b499c	0.27204597
73	0x40adbf0e	5.429572
74	0xbe1a92a6	-0.15095004
75	0xc14f4700	-12.954834
76	0x3c2ccd10	0.010546938
77	0x3df45fd4	0.1193234
78	0x3e7f33f5	0.24922164
79	0xc06ef974	-3.7339754
80	0xbe654c46	-0.22392377
81	0x3e9da705	0.30791488
82	0x3e181f57	0.14855705
83	0x3e4e79dd	0.20163675
84	0x40e804b2	7.250573
85	0xbdcd8bcf	-0.10036432
86	0x3e783f50	0.24242902
87	0xbf1edd33	-0.62056273
88	0xbdddd2e5	-0.108312406
89	0x40abfa11	5.3742757
90	0xbde7d024	-0.113189965
91	0xc18652cd	-16.79043
92	0x3f063f68	0.524405
93	0x3d898538	0.067148626
94	0xbc9b9fc6	-0.018997084
95	0xc0b9385c	-5.78813
96	0xbdce8d9c	-0.100856036
97	0xbdcdb3a8	-0.10044032
98	0x3db3e544	0.08783963
99	0xbe386f96	-0.18011317
100	0x3d8b7893	0.06810107
101	0xbd8eb94c	-0.06968936
102	0xbcdacc90	-0.026708871
103	0x3e2b632d	0.16737051
104	0x3d924a34	0.071430594
105	0xbe8d4390	-0.2759061
106	0x3ddbf74c	0.107405275
107	0xbed068f6	-0.4070508
108	0xbe21e306	-0.15809259
109	0x3e6d86be	0.23195931
110	0xbdd65120	-0.10464692
111	0xbe3a1c9c	-0.18174976
112	0xbdd9e5d7	-0.106395416
113	0xbe6626dd	-0.22475763
114	0x3e6c9b88	0.23106205
115	0xbc8d2740	-0.01723063
116	0xbe91c1c4	-0.28468144
117	0x3cc09fac	0.023513637
118	0xbe6b329a	-0.22968522
119	0xbe6f8462	-0.23390344
120	0x3db832af	0.08994042
121	0x3e4e7620	0.20162249
122	0xbe6ff712	-0.23434094
123	0xbf2047ed	-0.6260975
124	0xbdbe07c4	-0.09278825
125	0xbd242938	-0.04007837
126	0x3e4408a0	0.19143915
127	0xbf02b9b1	-0.5106459
128	0x3e4ddbbe	0.20103356
129	0x3e24649f	0.16054009
130	0xbc0fb781	-0.008771778
131	0x3dba8e24	0.091091424
132	0xbdcf3627	-0.101177506
133	0x3e90f2de	0.28310293
134	0x3e7848fe	0.24246594
135	0x3f05b36d	0.52226907
136	0x3ea57e8b	0.32323107
137	0xbef27e6c	-0.47362077
138	0x3e082764	0.13296276
139	0x3a8e46d6	0.0010854851
140	0xbd9904ed	-0.07471643
141	0xbe0087e8	-0.12551844
142	0xbc3f5c6c	-0.01167975
143	0xc04568e2	-3.0845265
144	0xbda96283	-0.08270743
145	0x3d4d9a38	0.050195903
146	0xbda27787	-0.07932954
147	0xbe315488	-0.17317402
148	0xbe1c59e5	-0.15268667
149	0x3da1c822	0.078995004
150	0xbe3573b4	-0.17719918
151	0x3e0a176a	0.13485494
152	0xbe8bc5a6	-0.2729923
153	0x3d4c8d8e	0.049939685
154	0xbda2e788	-0.07954317
155	0xbda2f846	-0.07957511
156	0xbea5bf7f	-0.32372662
157	0x3df3c4bc	0.119027585
158	0x3e20f1c3	0.15717225
159	0xbe3f8f7d	-0.1870708
160	0x3ccd14ea	0.025034387
161	0xbca640e8	-0.020294622
162	0xbe2ff85b	-0.17184584
163	0xbd208108	-0.039185554
164	0x3b3eec6b	0.0029132615
165	0xbe1085ea	-0.14113584
166	0x3cd475e0	0.025935113
167	0xbd93c0c4	-0.072145015
168	0xbe330a2d	-0.1748435
169	0x3ddaddbf	0.10686826
170	0x3d1a7038	0.037704676
171	0xbd7c6118	-0.061616033
172	0xbe755694	-0.23958808
173	0x3e62ca96	0.22147593
174	0x3e2607d6	0.16213927
175	0xbeaf8dde	-0.34287924
176	0x3dfeaf99	0.12435836
177	0x3df8d47d	0.12149904
178	0x3dd47e1b	0.10375615
179	0xbd252d98	-0.040326685
180	0xbf983741	-1.1891862
181	0x3e3ae075	0.18249686
182	0x3e4f1c9c	0.20225757
183	0xbfbd3d8a	-1.4784405
184	0x3e21f223	0.15815024
185	0xbfbbadf5	-1.4662462
186	0x3e2d82f2	0.16944483
187	0xbf9557f6	-1.1667469
188	0x3e3f4229	0.18677582
189	0x3dcc0f18	0.099638164
190	0xbdb6bf3c	-0.08923194
191	0xbf0838fa	-0.5321194
192	0xbd1cc656	-0.038275085
193	0xbd90b9d8	-0.07066697
194	0xbdbe8ed0	-0.09304583
195	0x3cb808a2	0.022465054
196	0xbce95d4f	-0.028486876
197	0xbe923dca	-0.28562766
198	0x3de7668c	0.11298856
199	0x3d5f9a40	0.054590464
200	0x3e2d8c68	0.16948092
201	0xbea74a0a	-0.32673675
202	0xbd8ebad8	-0.06969231
203	0xc036ba7d	-2.8551323
204	0xbe8fbfab	-0.2807592
205	0x3d065670	0.032797277
206	0x3d547b33	0.051875304
207	0xbede3038	-0.43396163
208	0xbe0f89f8	-0.14017475
209	0xbe7ae3be	-0.24500939
210	0xbcc8a570	-0.02449295
211	0x3da86df8	0.082241
212	0xbdc8d8e8	-0.098069966
213	0x3e0d939a	0.13825837
214	0xbe27f75c	-0.16402954
215	0x3c31c780	0.010850787
216	0x3dcb96c4	0.09940866
217	0x3d1f1898	0.038841814
218	0x3e661002	0.22467044
219	0xbe462c7a	-0.19352904
220	0xbe05ab90	-0.13053727
221	0x3e1f87fc	0.15579218
222	0xbd0717e0	-0.032981753
223	0xbe02bcae	-0.12767288
224	0xbe066282	-0.13123515
225	0x3d5626b1	0.052282993
226	0xbcdcba40	-0.02694428
227	0x3de5422c	0.11194262
228	0x413b028f	11.688125
229	0xbe0b7cc4	-0.13621813
230	0x3e29ff1a	0.1660122
231	0x3e859543	0.2609044
232	0xbd83a619	-0.06428165
233	0x413151e3	11.082492
234	0x3e1ed5ca	0.15511242
235	0xbfc72249	-1.5557338
236	0xbe614830	-0.22000194
237	0xbe0b9c32	-0.13633803
238	0x3e69882e	0.22805855
239	0xc04096f4	-3.0092134

seed_gnn.mlp.5.0.bias f4 [15]
0	0x3de59d04	0.11211589
1	0xbf2abd28	-0.6669488
2	0x3e876dbb	0.26450905
3	0xbf2f272f	-0.68419164
4	0xbf017dd0	-0.505826
5	0xc013c0f0	-2.308651
6	0xbeaee480	-0.34158707
7	0xbf405f3c	-0.75145316
8	0xc081b0e2	-4.052842
9	0xbf170816	-0.58996713
10	0xbedc4156	-0.43018597
11	0xc01bbac0	-2.4332733
12	0xc0632530	-3.5491447
13	0xbe026ae6	-0.12736091
14	0xc092a89a	-4.5830812

seed_gnn.mlp.6.0.weight f4 [15, 16]
0	0xc07144c7	-3.7698228
1	0x3e802acd	0.25032654
2	0x4124900d	10.285169
3	0x3e931246	0.2872488
4	0x40b7b98c	5.7414
5	0x40a7f965	5.2491937
6	0x3e30021c	0.17188305
7	0xbe300018	-0.17187536
8	0x3e047341	0.12934591
9	0x3df056d1	0.11735309
10	0xbe3e1f7f	-0.18566702
11	0x3e9e2d9e	0.30894178
12	0x3dcc2573	0.0996808
13	0x3c815f10	0.0157924
14	0xc1d609df	-26.75482
15	0xc02f4bff	-2.7390134
16	0xbe23e5ff	-0.16005705
17	0x3d8b9704	0.06815913
18	0xbdf6d182	-0.12051679
19	0xbeb5dd07	-0.35520193
20	0xbd80b966	-0.06285362
21	0x3e0bdb4d	0.13657875
22	0x3e6864d4	0.22694713
23	0x3d996607	0.07490163
24	0xbea7ab16	-0.32747716
25	0xbdb5f1f0	-0.088840365
26	0xbe1c2435	-0.15248187
27	0xbd78aefe	-0.06071376
28	0xbe02f976	-0.12790474
29	0xbd0f8400	-0.035037994
30	0xbdf73e80	-0.12072468
31	0xbddcdef0	-0.107847095
32	0xc1490da7	-12.565833
33	0xbe6c3fc0	-0.23071194
34	0x40d7986a	6.737355
35	0xbe2822bd	-0.16419502
36	0x40050f93	2.0790756
37	0xc0e1f4e9	-7.0611463
38	0xbea188bd	-0.31549636
39	0x3d4ded6e	0.05027526
40	0x3e404b3e	0.18778703
41	0xbe22e8f4	-0.15909177
42	0xbd35667a	-0.044287182
43	0x3fe7ec64	1.8119016
44	0x3e877ef7	0.26464054
45	0xbc784fc0	-0.015155733
46	0xc053b8c0	-3.3081512
47	0xbf2600c4	-0.6484492
48	0x416c41fd	14.76611
49	0x3e8011a5	0.25013462
50	0x41abcc8f	21.474882
51	0xbe1b88d9	-0.15188922
52	0x416b1da3	14.694736
53	0x4184e463	16.611517
54	0xbc4e17bf	-0.012578904
55	0xbe4c9347	-0.19978057
56	0xc0146a04	-2.3189707
57	0x3ec26979	0.37971094
58	0x3a9d520e	0.0012002604
59	0xbe0c5d6c	-0.13707513
60	0x3e8e4548	0.27787232
61	0xbb142500	-0.0022605062
62	0xc214ea48	-37.22879
63	0xc1ba130c	-23.2593
64	0x414b86c4	12.720402
65	0x3d34c650	0.044134438
66	0x40c8c6f0	6.2742844
67	0x3d50fcb0	0.05102223
68	0x411d5a78	9.834587
69	0x40f5029a	7.6565676
70	0x3dac3745	0.08408979
71	0x3e10dc3e	0.14146516
72	0xbe281240	-0.16413212
73	0xbe7c20f2	-0.24621943
74	0xbd6cc7d8	-0.057807773
75	0xbcef4bb0	-0.029210895
76	0x3ceb7f00	0.028747082
77	0x3e69e8e6	0.2284275
78	0x3f2d8f52	0.67796814
79	0xc00ef566	-2.233728
80	0xbe6fb7af	-0.23409913
81	0xbe901b60	-0.28145885
82	0xbe3a8ef7	-0.182186
83	0xbead2534	-0.33817446
84	0xbdf05477	-0.117348604
85	0xbe0007c9	-0.1250297
86	0x3df4927c	0.11942002
87	0xbe8da575	-0.27665296
88	0xbf0ca2b3	-0.5493576
89	0xbed0b7e9	-0.40765312
90	0x3cd61891	0.026134761
91	0xbe10f6cf	-0.1415665
92	0xbe79f3ef	-0.2440946
93	0xbda55944	-0.08073667
94	0xbe0c1346	-0.13679227
95	0xbe467d9a	-0.1938385
96	0x3da1f022	0.0790713
97	0x3be68c00	0.0070357323
98	0xbcd9540d	-0.026529336
99	0xbdebcb90	-0.11513436
100	0xbea6c345	-0.32570854
101	0xbdb0cda6	-0.08632974
102	0x3ce5e870	0.028064936
103	0x3e773bb4	0.24143869
104	0x3dacefd4	0.08444181
105	0xbe2002ea	-0.15626112
106	0x3e511de4	0.20421559
107	0xbd2d1950	-0.042260468
108	0x3ddd9b18	0.108205974
109	0x3e7eccda	0.24882832
110	0xbe7d35fc	-0.24727625
111	0xbe5d5814	-0.2161563
112	0xc1045df2	-8.272936
113	0xbe64c604	-0.22341162
114	0x4088a78e	4.2704535
115	0xbe1ad87c	-0.15121645
116	0xbff555da	-1.9166825
117	0xc0959eb9	-4.6756253
118	0xbda9f8db	-0.082994185
119	0x3dd2e7d4	0.10298124
120	0xbe84537b	-0.2584494
121	0x3dc731df	0.09726309
122	0xbce1b896	-0.027553838
123	0x3fcf3b50	1.6189976
124	0x3faa6eb1	1.331503
125	0xbe74bd66	-0.23900375
126	0xbfb07407	-1.3785409
127	0xc1a6fe7a	-20.874256
128	0x408a4393	4.320749
129	0xbe5b9d58	-0.2144674
130	0x40190388	2.3908405
131	0xbdb9f396	-0.090796635
132	0x4036f88b	2.8589199
133	0x410ff649	8.997628
134	0xbe708d32	-0.23491362
135	0x3d88d912	0.06682028
136	0xbeaab813	-0.33343562
137	0xbebb9247	-0.36635038
138	0xbe354497	-0.17701946
139	0xbee830aa	-0.45349628
140	0xbecd33e7	-0.4007866
141	0xbd849dc0	-0.06475401
142	0x40fc5e80	7.8865356
143	0xc02f69d5	-2.7408345
144	0xbf487783	-0.7830736
145	0xbe6e2de8	-0.232597
146	0xbef5a0ac	-0.47974145
147	0x3e6b2660	0.22963858
148	0xc005dbbc	-2.0915365
149	0xbec7b78e	-0.3900723
150	0xbdae7498	-0.08518332
151	0xbe51dc0e	-0.204941
152	0x3e3d0957	0.18460594
153	0xbd19efc0	-0.03758216
154	0xbd67b578	-0.056569546
155	0x3e3c9fc4	0.18420321
156	0x3c6c4b60	0.014422268
157	0x3d473c18	0.048641294
158	0xbe225bcc	-0.1585533
159	0xbe4dac9e	-0.2008538
160	0xbe3fb7c2	-0.18722442
161	0x3eac60ce	0.33667606
162	0xbe8297d3	-0.25506458
163	0x3ec40fff	0.38293454
164	0xbe364ced	-0.17802782
165	0x3e4db28a	0.20087638
166	0x3e308660	0.1723876
167	0x3c723497	0.014783046
168	0x3ef6b507	0.48184988
169	0x3f156873	0.583625
170	0xbdf72986	-0.12068467
171	0x3f32699d	0.69692403
172	0x3f017390	0.5056696
173	0x3d16b6a8	0.03679529
174	0xbda60e01	-0.0810814
175	0xbf129e51	-0.5727282
176	0xbfce6865	-1.6125609
177	0xbe181d24	-0.14854866
178	0xbfb2e067	-1.3974732
179	0xbcd5b1a0	-0.026085675
180	0xbfd84145	-1.6894919
181	0xbfdc576e	-1.7214181
182	0x3e18430c	0.14869326
183	0x3c401700	0.011724234
184	0xbeae8885	-0.3408853
185	0xbdde9cf4	-0.1086978
186	0x3e4f9d6a	0.20274892
187	0xbe54a8c2	-0.20767501
188	0xbe651746	-0.2237216
189	0xbe5a7ba8	-0.21336234
190	0xbed3284f	-0.4124169
191	0xbe2acd64	-0.16679913
192	0xbff210b7	-1.8911351
193	0xbc931210	-0.017952949
194	0xbd804373	-0.06262865
195	0xbe23f44a	-0.16011158
196	0x3ddd1d46	0.10796599
197	0xbd9599c0	-0.07304716
198	0xbe3f8036	-0.18701252
199	0x3c8b6200	0.017014503
200	0x3d8631f4	0.065524966
201	0x3daeb9b4	0.08531514
202	0xbe225e10	-0.15856194
203	0xbdfbf340	-0.12302256
204	0x3e6721c8	0.2257148
205	0x3c2cd960	0.010549873
206	0xc009bc18	-2.1521053
207	0x3d1fdd38	0.03902933
208	0xbe82080f	-0.25396773
209	0xbe2c25e5	-0.1681133
210	0x3c4a65dc	0.012353387
211	0x3e0d8aa5	0.1382242
212	0x3e6e7cdc	0.23289818
213	0xbe2d1912	-0.16904095
214	0xbe588500	-0.21144485
215	0x3e6ced94	0.23137504
216	0x3df3d68a	0.119061545
217	0xbe07c06f	-0.13257001
218	0xbe17b533	-0.14815216
219	0xbd74c120	-0.05975449
220	0x3e47ddaa	0.19518152
221	0xbe076470	-0.13221908
222	0xbd112dd8	-0.03544411
223	0xbf14b310	-0.5808573
224	0xbd9cf9ec	-0.07664856
225	0x3c608980	0.013704658
226	0xbe7cf97e	-0.24704549
227	0x3e151cd2	0.14561775
228	0xbd704c38	-0.058666438
229	0xbe14d8f4	-0.14535886
230	0xbde8363c	-0.113384694
231	0x3cee6d70	0.029104918
232	0xbd281908	-0.041039497
233	0xbdbc4554	-0.09192911
234	0x3e7b88b8	0.24563873
235	0xbe3d8fb4	-0.1851185
236	0x3bf55800	0.007487297
237	0xbe06915a	-0.13141385
238	0xbe4c64e4	-0.19960362
239	0xbd590980	-0.052987576

seed_gnn.mlp.6.0.bias f4 [15]
0	0xbfde63ee	-1.7374246
1	0xbf144ba4	-0.5792792
2	0xbf267019	-0.650148
3	0xbeae12de	-0.3399877
4	0xbf9f8703	-1.2463077
5	0xbf365d66	-0.71236265
6	0xbe78f25f	-0.24311207
7	0xbf38a22c	-0.72122455
8	0xc0568bd9	-3.3522856
9	0xc0237ba0	-2.5544205
10	0xbf02c86d	-0.51087075
11	0xc0105fb0	-2.2558403
12	0xc05de853	-3.467305
13	0xbf2f82cd	-0.6855896
14	0xbe6b6048	-0.22985947

seed_gnn.mlp.7.0.weight f4 [15, 16]
0	0x3ccae2a0	0.024766266
1	0x3e62d3ce	0.2215111
2	0x3d0c4af0	0.034251153
3	0x3d375900	0.04476261
4	0xbe5cdb18	-0.21567953
5	0x3e06bf96	0.13159022
6	0xbe5b04f0	-0.21388602
7	0xbdf6c770	-0.120497584
8	0xbe55664c	-0.20839804
9	0xbe1c2582	-0.15248683
10	0xbca88220	-0.020569861
11	0xbe47301c	-0.19451946
12	0xbe4d2366	-0.20033035
13	0xbdfd3600	-0.12363815
14	0x3d90f0a4	0.070771486
15	0xbe04cdc6	-0.12969121
16	0xbe17a29a	-0.14808121
17	0xbdd91394	-0.10599437
18	0x3dd5aa18	0.104328334
19	0xbe33c5cc	-0.17555922
20	0xbe4d3de4	-0.2004314
21	0x3e39eeda	0.18157521
22	0xbda6456c	-0.0811871
23	0xbdfe280c	-0.12409982
24	0xbd6cb6d8	-0.05779156
25	0x3d5053b8	0.05086109
26	0x3e5d12e2	0.21589234
27	0x3e58ae06	0.21160135
28	0x3d8be248	0.06830269
29	0xbcef6dd0	-0.029227167
30	0xbd81606c	-0.06317219
31	0x3e7eb9c6	0.24875554
32	0xbe1991b8	-0.14996994
33	0xbcff9490	-0.03119877
34	0xbd29b508	-0.04143241
35	0x3e717ae2	0.23582032
36	0xbdec28ac	-0.11531195
37	0x3dbc8514	0.0920507
38	0xbe5b8eca	-0.21441188
39	0x3e2450da	0.16046467
40	0xbe0f19ac	-0.13974637
41	0xbcbed420	-0.023294508
42	0x3e52fe6c	0.20604867
43	0x3e1f8386	0.15577516
44	0x3e28930a	0.16462341
45	0xbce90a60	-0.02844733
46	0x3d443798	0.04790458
47	0xbe076682	-0.13222697
48	0xbe5f763a	-0.21822444
49	0x3b655880	0.0034995377
50	0x3dac767c	0.084210366
51	0xbe697156	-0.2279714
52	0x3d2ccaa0	0.042185426
53	0x3e146eb4	0.14495355
54	0x3d3a59a0	0.04549563
55	0x3de6b904	0.11265758
56	0xbe3f34ba	-0.18672457
57	0x3e3568ae	0.17715713
58	0xbd3c6ec0	-0.046004057
59	0x3e30e560	0.17275
60	0x3e0874ce	0.13325807
61	0xbe56dbc6	-0.20982274
62	0xbe33d6b8	-0.17562377
63	0xbe77a480	-0.24183846
64	0x3e506da2	0.20354322
65	0xbd8fd090	-0.07022202
66	0x3e17565e	0.1477904
67	0x3e756bb4	0.23966867
68	0xbe68930e	-0.22712347
69	0xbe40e1c2	-0.1883612
70	0x3dd777a0	0.105208635
71	0x3e27422c	0.16333836
72	0x3e04dd42	0.12975028
73	0x3dafbbfc	0.08580777
74	0x3c739440	0.0148668885
75	0x3e7e6566	0.24843368
76	0xbe755a84	-0.2396031
77	0xbdddc63c	-0.10828826
78	0x3e733c36	0.23753437
79	0xbcfdb110	-0.030968219
80	0x3e6b7eb6	0.22997555
81	0x3e75e6d8	0.24013841
82	0x3d865930	0.0655998
83	0xbcbb4180	-0.022858381
84	0x3da9f0b8	0.082978666
85	0x3def2948	0.11677796
86	0x3d98d2bc	0.074620694
87	0x3cff1be0	0.031141222
88	0x3dc3f388	0.09567934
89	0x3dfa621c	0.12225744
90	0xbd919a74	-0.07109538
91	0xbe66c0aa	-0.22534433
92	0xbe34c4b8	-0.17653167
93	0xbe54ed9e	-0.20793769
94	0x3dbe7bf8	0.09300989
95	0x3d3809d8	0.044931263
96	0x3e0a05b8	0.13478744
97	0x3e441256	0.1914762
98	0xbc850ed0	-0.016242415
99	0xbdb19258	-0.08670491
100	0x3e063f96	0.13110194
101	0x3df67158	0.12033337
102	0x3e433c1c	0.19065899
103	0xbdc0b174	-0.094088465
104	0x3d82c6c8	0.06385571
105	0xbcfe3200	-0.031029701
106	0xbe505020	-0.20343065
107	0x3e16807c	0.1469745
108	0xbe111d22	-0.1417127
109	0x3e08c340	0.13355732
110	0xbe624efa	-0.2210044
111	0x3e0c882c	0.1372382
112	0xbe745dba	-0.23863879
113	0xbdeba164	-0.11505392
114	0xbdff514c	-0.12466678
115	0xbe4d565c	-0.20052475
116	0x3deb7d74	0.11498538
117	0x3cc14820	0.023593962
118	0x3e04a5fa	0.1295394
119	0xbe76bdaa	-0.24095789
120	0x3d735de8	0.059415728
121	0x3daf0010	0.08544934
122	0x3e579806	0.21054086
123	0xbd82ab6c	-0.063803524
124	0xbe6ec036	-0.2331551
125	0x3dacf798	0.08445662
126	0x3e28859e	0.16457221
127	0x3e0f951e	0.14021727
128	0x3dbac5ac	0.09119734
129	0xbd9d7960	-0.07689166
130	0xbe5a5228	-0.21320403
131	0xbe20210a	-0.15637603
132	0x3ded7a94	0.115956455
133	0xbda50f14	-0.080595165
134	0xbe685c04	-0.22691351
135	0x3d4fdaa0	0.050745606
136	0x3dfeeba4	0.12447289
137	0x3c06eca0	0.008235127
138	0xbc728820	-0.014802963
139	0x3d27a6a8	0.04093042
140	0xbe28cbba	-0.16483966
141	0x3d308e40	0.04310441
142	0x3e41148a	0.18855491
143	0x3e06e1fc	0.13172144
144	0xbb89ec80	-0.004209101
145	0x3d1bfe40	0.03808427
146	0xbd078bd0	-0.03309232
147	0xbe232e82	-0.1593571
148	0xbe6736a4	-0.22579437
149	0xbc8dae30	-0.017294973
150	0xbe4a17a6	-0.19735584
151	0xbe7e644e	-0.2484295
152	0x3e0d9894	0.13827735
153	0x3db327fc	0.08747861
154	0xbe74ae2a	-0.23894563
155	0x3e282972	0.1642206
156	0x3bd73280	0.0065672994
157	0x3dee36ac	0.116315216
158	0xbd88b204	-0.06674579
159	0xbe05b778	-0.13058269
160	0x3e28879a	0.16457978
161	0xba9c5700	-0.0011927783
162	0x3c639540	0.013890564
163	0xbb588e80	-0.003304392
164	0xbdca5edc	-0.09881374
165	0x3e6a92fc	0.22907633
166	0xbbd4ff00	-0.006500125
167	0xbe1facfe	-0.15593335
168	0x3d2b8920	0.04187882
169	0xbd0c10d8	-0.03419575
170	0xbe43bcea	-0.19115034
171	0xbe4edf50	-0.20202374
172	0x3dab5bac	0.083670944
173	0xbe2f7a30	-0.17136455
174	0xbe0814fa	-0.13289252
175	0xbe2f8760	-0.17141485
176	0xbe399966	-0.18124923
177	0xbca77420	-0.020441115
178	0xbe7b7738	-0.24557197
179	0x3c9c59a0	0.019085705
180	0x3e6e269a	0.23256913
181	0xbdd40968	-0.103533566
182	0x3d4dcba0	0.05024302
183	0xbe61b54e	-0.22041818
184	0x3e0b5a44	0.13608652
185	0xbd98505c	-0.07437202
186	0x3cb728a0	0.022358239
187	0xbe40e820	-0.18838549
188	0x3e180f28	0.14849532
189	0xbe1e250c	-0.1544382
190	0xbe64d074	-0.22345144
191	0x3e4ff558	0.20308435
192	0x3e46e2bc	0.1942243
193	0x3e116594	0.14198905
194	0x3e499aa2	0.19687894
195	0x3e73afde	0.23797557
196	0xbd786620	-0.06064427
197	0xbd8cf5f8	-0.06882852
198	0x3e39066a	0.18068853
199	0x3e5e723e	0.21723267
200	0xbe2f438c	-0.17115611
201	0xbdbe7d18	-0.093012035
202	0x3de2e780	0.11079311
203	0xbc9b5ad0	-0.018964201
204	0xbe1cf210	-0.15326715
205	0x3db0625c	0.086125106
206	0xbe4b0ab6	-0.19828305
207	0x3da66c94	0.081261784
208	0xbdf79d0c	-0.12090501
209	0x3dcb6e30	0.09933126
210	0xbdb0f390	-0.08640206
211	0x3e7cd73a	0.24691477
212	0x3e4673b8	0.1938008
213	0x3c005220	0.00783208
214	0xbe4ffe16	-0.2031177
215	0x3e516baa	0.20451227
216	0x3e71b9f8	0.23606098
217	0xbe021032	-0.1270149
218	0x3e6a06a6	0.22854099
219	0x3dda6afc	0.10664937
220	0x3deafa54	0.114735276
221	0xbe0dba2c	-0.1384055
222	0xbdaa5778	-0.083174646
223	0x3c6edc40	0.014578879
224	0xbe744ca2	-0.23857358
225	0xbd8c5a2c	-0.068531364
226	0x3e695d9e	0.22789618
227	0x3e3634b8	0.17793548
228	0x3d9ce880	0.07661533
229	0x3e64d422	0.22346547
230	0xbd68b550	-0.056813538
231	0xbda04ea8	-0.078275025
232	0xbdcd22a0	-0.1001637
233	0xbc426120	-0.011863977
234	0x3e4c4e48	0.19951737
235	0xbe51f28e	-0.20502684
236	0xbc764f80	-0.015033603
237	0x3e5ef9f2	0.21775034
238	0xbe1d4d02	-0.15361407
239	0xbcbfbed0	-0.023406416

seed_gnn.mlp.7.0.bias f4 [15]
0	0xbe347b0e	-0.17625067
1	0xbe4a2a96	-0.19742808
2	0xbe494954	-0.19656879
3	0xbd951b2c	-0.07280573
4	0xbdaf3e00	-0.085567474
5	0xbd37a3d0	-0.04483396
6	0xbe1fa08c	-0.15588588
7	0x3e2f6f8e	0.17132398
8	0xbd540388	-0.05176118
9	0xbd033530	-0.032033145
10	0xbd9ceb20	-0.07662034
11	0x3d1dc8b8	0.0385215
12	0xbe3090fa	-0.17242804
13	0xbdc0fb84	-0.09422973
14	0xbd815a44	-0.06316045

seed_gnn.readout.1.0.weight f4 [1, 16]
0	0xbf8138fc	-1.0095515
1	0xbfbbc254	-1.4668679
2	0xbf0c2428	-0.5474267
3	0x3e0f7e02	0.14012912
4	0xbfc22f28	-1.5170641
5	0xbe65dce2	-0.22447541
6	0xbe684d7c	-0.22685808
7	0xbfb0390c	-1.3767409
8	0x3de4d02e	0.111725196
9	0xbcfdc6d0	-0.03097859
10	0x3d353ebc	0.04424928
11	0xbd850b2a	-0.0649627
12	0x3e635404	0.22200018
13	0x3c74aed5	0.014934261
14	0xbd1628d0	-0.036660016
15	0xc0ac24f6	-5.379512

seed_gnn.readout.2.0.weight f4 [1, 16]
0	0xbc527620	-0.012845546
1	0x3ee240a5	0.44189945
2	0x3f1b8505	0.60749847
3	0xbe262854	-0.16226321
4	0x3f10312b	0.56325024
5	0x3ff8368a	1.9391644
6	0x3d87c9e7	0.06630307
7	0x3da48348	0.080328524
8	0x3af1f056	0.0018458467
9	0x3e52512e	0.2053878
10	0x3e2bf224	0.16791588
11	0xbd095a94	-0.033533648
12	0x3fe69aea	1.8016026
13	0x3fadd928	1.3581896
14	0x3ecbf9e7	0.39839098
15	0xc19cc710	-19.597198

seed_gnn.readout.3.0.weight f4 [1, 16]
0	0x3e349bf3	0.17637615
1	0x3ee04c65	0.43808284
2	0xbec97f4f	-0.3935494
3	0xbe7ad145	-0.24493892
4	0x3efb30dc	0.49060714
5	0x3ee91646	0.45524806
6	0x3fbd1c2e	1.4774225
7	0xc006fcec	-2.1091871
8	0x3f502263	0.8130247
9	0xbebd0690	-0.3691907
10	0xbe0e0828	-0.13870299
11	0xbdd0e154	-0.10199228
12	0xc0085b6a	-2.1305795
13	0xbe1e5686	-0.15462694
14	0xbd839d4b	-0.06426486
15	0xc1498459	-12.594811

seed_gnn.readout.4.0.weight f4 [1, 16]
0	0xbdf32911	-0.11873067
1	0x3cfb2a50	0.030659825
2	0xbe255e0f	-0.16149162
3	0xbeeeeaf0	-0.46663618
4	0x3cc07ef0	0.023498029
5	0x3f97cd88	1.1859598
6	0xbb699580	-0.0035642087
7	0x3d8ac9a9	0.06776745
8	0xbe231b6f	-0.15928434
9	0xbd2de5c4	-0.04245545
10	0x3d02101a	0.031753637
11	0xbfaa26fe	-1.329315
12	0x3e89b8cb	0.26898798
13	0xbfb27542	-1.3942034
14	0xbebca13b	-0.3684176
15	0x41a743ff	20.908201

seed_gnn.readout.5.0.weight f4 [1, 16]
0	0x3cd39b83	0.02583099
1	0xbeaf6024	-0.34253037
2	0xbee7f011	-0.45300344
3	0x3c57bdb7	0.01316779
4	0x3f0cffa9	0.55077606
5	0xbe897320	-0.26845646
6	0x3ebee18f	0.37281463
7	0xc034256a	-2.8147836
8	0x3edb8fbc	0.42883098
9	0xbdbf9599	-0.09354705
10	0x3dee9d84	0.116511375
11	0xc2ab2c53	-85.58657
12	0xbe6ed287	-0.23322497
13	0xbe58bebe	-0.21166512
14	0x3de7f8b0	0.1132673
15	0x40010566	2.0159545

seed_gnn.readout.6.0.weight f4 [1, 16]
0	0xc0047285	-2.0694897
1	0xbf13f8df	-0.5780162
2	0xc00834de	-2.1282268
3	0x3e109c6b	0.14122169
4	0x3f0a8b47	0.5411877
5	0xbfd356ba	-1.6510842
6	0xbce32ffd	-0.027732844
7	0xbea0faaf	-0.31441256
8	0x3fa3e27d	1.2803494
9	0xbdce0fb1	-0.10061587
10	0xbeed9009	-0.46398953
11	0xbf195da5	-0.59908515
12	0x40337784	2.8041697
13	0xbd885ff4	-0.066589266
14	0xbffd8056	-1.980479
15	0xbf45cd60	-0.772665

seed_gnn.readout.7.0.weight f4 [1, 16]
0	0xbfd9b4ee	-1.700834
1	0xbf049850	-0.5179491
2	0xbf1e72a5	-0.61893684
3	0x3e144b66	0.14481887
4	0x3f510b5f	0.81657976
5	0xbf07b597	-0.5301146
6	0xbe26baf8	-0.1628226
7	0xbfc1ea3d	-1.5149609
8	0x3e271df1	0.16320015
9	0x3ffaea3b	1.9602731
10	0xbf09ba68	-0.5380006
11	0xc014a116	-2.322332
12	0x400b82c8	2.1798573
13	0xbe928f88	-0.2862513
14	0xbd231468	-0.039814383
15	0x3b181aaa	0.0023209252
