ckpt/SeedGNN-model-trained.pth (torch, 5695 bytes, 11 tensors)

mlp.0.0.weight f4 [3, 1]
1.0883466 0.5099181 0.9996302
00000000: f14e 8b3f fe89 023f c4e7 7f3f

mlp.0.0.bias f4 [3]
-0.16330695 -0.049169496 -0.24533552
00000000: f039 27be f465 49bd 3c39 7bbe

mlp.1.0.weight f4 [3, 4]
0.5709311 0.51711434 0.3740731 -0.76863796 -0.352869 0.011953626 -0.28928313 -0.0873782
0.40827507 0.9501928 0.21361092 0.5259895
00000000: 8a28 123f 9b61 043f 8286 bf3e 75c5 44bf
00000010: 3fab b4be 24d9 433c eb1c 94be 57f3 b2bd
00000020: 6e09 d13e d63f 733f d2bc 5a3e 3fa7 063f

mlp.1.0.bias f4 [3]
0.6696292 -0.5288762 0.74834555
00000000: d26c 2b3f 6e64 07bf 9393 3f3f

mlp.2.0.weight f4 [3, 4]
-0.54372835 -0.17899053 -0.0861325 -0.027913231 0.32945913 0.7657087 0.05451239 0.8670098
-0.1471293 0.10259104 -0.38504356 -0.044891894
00000000: c831 0bbf 4b49 37be 3c66 b0bd 4aaa e4bc
00000010: deae a83e 7c05 443f 6248 5f3d 5bf4 5d3f
00000020: 10a9 16be 401b d23d 6e24 c5be 90e0 37bd

mlp.2.0.bias f4 [3]
0.05854266 0.20744611 -0.39459497
00000000: 6eca 6f3d c16c 543e 5a08 cabe

mlp.3.0.weight f4 [3, 4]
0.4674881 -0.007864535 -0.496602 -0.22902554 0.49453747 -0.30039805 0.47922117 -0.19714081
0.08071512 -0.4818231 0.46491015 0.19371492
00000000: 9a5a ef3e 40da 00bc 9e42 febe ac85 6abe
00000010: 0434 fd3e c6cd 99be 7a5c f53e 48df 49be
00000020: f84d a53d 84b1 f6be b408 ee3e 345d 463e

mlp.3.0.bias f4 [3]
-0.10125828 -0.46826565 0.25027168
00000000: 8060 cfbd 84c0 efbe 9c23 803e

readout.1.0.weight f4 [1, 4]
0.82153594 0.38760382 0.6326504 0.84617484
00000000: 2e50 523f 0274 c63e 60f5 213f ea9e 583f

readout.2.0.weight f4 [1, 4]
0.9402389 0.25781116 0.64764905 0.10201142
00000000: 7fb3 703f d3ff 833e 54cc 253f 5deb d03d

readout.3.0.weight f4 [1, 4]
0.16154818 0.87677234 0.36648548 0.55793816
00000000: e36c 253e 2774 603f fca3 bb3e 09d5 0e3f
